deeplearn2022/deeplearn2022/08_gan/classifier.pth (torch_old, 344949 bytes, 10 tensors)

conv1.weight f4 [16, 1, 5, 5]
000000 7c 4d 5d be af c3 02 be 29 cb 22 bd fe e3 fd 3d
       -0.21611589 -0.1276996 -0.03974453 0.12397002
000010 13 5b cd 3d 86 43 9b be f5 b7 a3 be 10 c4 aa be
       0.10027137 -0.30324954 -0.31976286 -0.3335271
000020 08 99 95 be 29 e7 4e be 55 d0 79 be 48 e8 63 be
       -0.29218316 -0.20205368 -0.24395879 -0.22256577
000030 df f8 80 be 54 97 ac be 82 43 97 be bf 5d 1a be
       -0.25189874 -0.33709204 -0.29543692 -0.15074824
000040 27 31 07 be 78 95 14 be a0 03 92 be a1 d1 3d 3c
       -0.13202344 -0.14510143 -0.2851839 0.011585624
000050 0d a7 45 3d 26 13 c5 bd b2 83 f0 bd 60 a0 31 3e
       0.048255015 -0.09622793 -0.11743869 0.17346334
000060 8b 08 31 3d 4d 2a 4a bd 76 e5 8f 3e 27 c9 0c 3c
       0.043221038 -0.049356747 0.28104752 0.00859288
000070 31 92 81 3e 23 10 52 3d b9 85 15 3d bb 22 97 3e
       0.25306848 0.05128492 0.03650448 0.29518685
000080 dd 67 8c 3e 1e d0 0f 3e ac f0 d4 3c cc 9e 6e 3e
       0.2742299 0.14044234 0.025993668 0.23302764
000090 a4 a6 b0 bd 5a 1b 0a be eb 1b 8d be 36 fa 17 be
       -0.08625534 -0.13486996 -0.27560362 -0.14841542
0000a0 59 69 0e be de a7 50 be a6 08 ad be f9 c9 61 3c
       -0.13907374 -0.20376536 -0.3379566 0.013781064
0000b0 6f a7 81 be c8 94 7b bb b8 80 23 be 94 ec 68 be
       -0.25323054 -0.003838824 -0.15967071 -0.22746497
0000c0 94 e7 2e be 94 ce 7f bd 06 41 44 3e 3d ff e3 bd
       -0.17080528 -0.062452868 0.1916543 -0.11132667
0000d0 48 bc 46 3e 6a 43 8e 3e 4e 53 03 3e 9a 5d 4f be
       0.19407761 0.27785808 0.12824747 -0.2025055
0000e0 8f 22 57 3d e9 ac 0a 3e df 52 39 be cb 60 6f bd
       0.052523192 0.13542522 -0.18098019 -0.05844192
0000f0 cb cd 08 bd 6d 08 9b bd 85 35 33 bd bb 6a 0b be
       -0.033399384 -0.075699665 -0.043752212 -0.13614933
000100 32 18 ec 3d 47 6a 08 be 41 d9 0e 3e 3c f1 66 be
       0.115280524 -0.13321792 0.13950063 -0.22552961
000110 61 31 12 be 15 c3 53 bc 2d fc 1c 3e bb cf c0 bc
       -0.14276649 -0.012924929 0.15330572 -0.023536554
000120 0a 1d 5e be f4 43 11 be 51 60 56 3e 95 87 f5 bd
       -0.21690765 -0.14186078 0.2093518 -0.11988751
000130 11 61 0c be 0d 72 86 be 1c 07 39 3e b0 f1 74 3e
       -0.13708903 -0.2625889 0.18069118 0.23920321
000140 e3 de 84 bd b4 c2 94 bd 1d 78 c0 bd b9 7a 5f 3e
       -0.06487825 -0.07263699 -0.0939791 0.21824159
000150 50 1f 90 3e d8 dd 8e be c9 e2 a5 be e0 9a 87 be
       0.2814889 -0.27903628 -0.32399586 -0.26485348
000160 97 37 b8 3e 4f 9b b9 3e 66 8f 82 be 89 51 53 be
       0.35979912 0.36251304 -0.2550003 -0.20636572
000170 47 3e 1e 3e a0 59 04 3f a0 17 06 bc b0 b0 a6 be
       0.15453444 0.51699257 -0.008184344 -0.32556677
000180 44 92 13 3e ee ec 36 3e 18 ff a4 3e 00 ab 14 3e
       0.14411265 0.17863819 0.3222587 0.14518356
000190 e5 56 40 3e 3b 45 d8 3e ac bc 15 3e a9 9c 5b be
       0.18783148 0.4224032 0.14622754 -0.2144648
0001a0 1b 09 b3 be 2c 30 1c 3e 4f 33 e8 3e bb 22 db 3d
       -0.34967884 0.15252751 0.45351645 0.10699984
0001b0 7f 5e bb be a0 37 ae be 05 02 75 3e c7 95 c9 3e
       -0.36595532 -0.34026814 0.23926552 0.39372084
0001c0 0e e7 63 be 10 36 0c be bd 49 9e be 41 f3 87 3d
       -0.22256109 -0.13692498 -0.30915633 0.06638194
0001d0 8d 0c 87 3c 4c 1b b0 bd a0 e1 97 be 6e f0 55 3d
       0.016485477 -0.085989565 -0.29664326 0.052231245
0001e0 06 c3 4c 3e a7 4c 76 3e 3e a5 33 be 62 e4 53 3d
       0.1999627 0.24052678 -0.17543504 0.051731475
0001f0 c0 63 f6 bd 48 ff c1 bd ae 5f c2 bd 39 4e 56 be
       -0.120307446 -0.09472519 -0.09490906 -0.20928277
000200 3e cc 85 be 61 2e 90 3d 2b 27 35 3e 64 cf 70 3e
       -0.26132387 0.07040096 0.17690723 0.23516613
000210 9f 50 7a bd ea 35 9b be 20 52 0a bd 3b e2 3b 3e
       -0.061112043 -0.3031457 -0.033769727 0.18348019
000220 38 7e 8d 3d a7 53 ae bd 07 81 13 be ef ea 35 be
       0.0690884 -0.08512049 -0.14404689 -0.17765401
000230 81 8f 1c be 69 8f 62 3e 8a c1 81 3e 50 a6 bb 3d
       -0.15289117 0.22125019 0.2534297 0.09162581
000240 3e 71 89 3d fe c4 62 be 94 c6 3d 3e ac 04 8a 3e
       0.06711052 -0.22145459 0.18532783 0.2695669
000250 12 53 f3 3d 75 f1 0f be 92 12 5a be fc cc a7 3d
       0.11881079 -0.14056952 -0.21296147 0.081933945
000260 a5 7c 1b be e5 69 34 3e d5 83 3f 3e 39 a2 a0 bd
       -0.15184267 0.1761852 0.18702634 -0.078434415
000270 5d 16 24 be ac 38 09 bc 7f 18 3a be aa fe 2e 3d
       -0.16024156 -0.008375328 -0.18173407 0.042723335
000280 60 44 a8 3c e7 f3 55 be 3e 31 c6 bc 3c 92 18 bc
       0.020540416 -0.20893823 -0.024193402 -0.009312209
000290 20 91 3c bd ee b5 e3 bc c9 3f 46 be 6b d2 cc b9
       -0.04603684 -0.027796712 -0.1936027 -0.00039066686
0002a0 4e a1 0d be 53 0a 02 3e 43 80 0f be c4 6d 9a bd
       -0.13831064 0.12699251 -0.14013772 -0.075404674
0002b0 6f 27 34 be 9c 2b d4 bd 6d f1 81 3d 3c fc a0 bd
       -0.17593168 -0.1035988 0.063448764 -0.0786061
0002c0 c8 c2 08 3e 21 8c 35 3e b1 fc 37 3e b9 57 04 3e
       0.13355553 0.17729236 0.17967488 0.12924089
0002d0 19 d3 44 3e 2e 32 0d 3d ce b9 07 3e 7d cd eb 3d
       0.19221152 0.034471683 0.13254473 0.11513803
0002e0 a3 97 e6 bd d2 1e 3c 3e 15 55 f6 bc 42 47 96 be
       -0.11259391 0.18371132 -0.030069867 -0.2935124
0002f0 f5 2f 5a be 23 df 0d 3e 82 9e 58 be 9c 93 60 3d
       -0.21307357 0.13854651 -0.21154216 0.05482827
000300 7e 1f 2b be 5b 18 cb 3d 42 4a f8 bc 21 2f da 3d
       -0.16711232 0.09916755 -0.030308846 0.106535204
000310 b9 6d de 3d a5 9c 53 bd 84 38 18 3d 09 1b 7b be
       0.10860772 -0.05166306 0.037163273 -0.24522032
000320 52 25 89 bd 93 62 66 bd 0a c7 04 be a1 d9 d7 3d
       -0.066965714 -0.05624635 -0.12966552 0.10539556
000330 67 a2 47 be 4a ab ce 3d 21 fe 85 3c 38 40 31 be
       -0.19495545 0.100912645 0.01635653 -0.17309654
000340 ab 32 ac 3c d8 55 db bd 6e 41 d5 3d 06 dc 48 bd
       0.021020254 -0.10709733 0.1041287 -0.049037956
000350 76 a0 07 3e fe 2d c0 3d 7e a3 58 3d 60 3f f8 3d
       0.13244805 0.09383772 0.052890293 0.12121463
000360 f1 0c 69 3e 42 a1 2c 3e cd 77 37 3d e4 8f 02 3e
       0.22758843 0.1685839 0.044791985 0.12750202
000370 0c 07 23 be 90 2a 2c be f1 68 08 be b1 b7 ac 3c
       -0.15920657 -0.16813111 -0.13321282 0.021083685
000380 c9 a1 b7 bd 3f 4e 5a be 73 b9 0f be 52 d7 44 bb
       -0.08966405 -0.21318911 -0.14035587 -0.0030035567
000390 fa 86 66 bd 67 83 47 3d 1a 3a 18 be b9 f7 f7 bb
       -0.056281067 0.0487093 -0.14865914 -0.0075673726
0003a0 07 b7 7c be 80 4d 12 be a1 86 9f bc 4d 03 8d be
       -0.24679194 -0.14287376 -0.019473376 -0.2754158
0003b0 78 29 06 be bf 3a 51 be c0 d4 d5 bd c9 a8 42 bd
       -0.13101757 -0.20432566 -0.104409695 -0.047524247
0003c0 fc e5 f0 38 da 0d 9a be 67 f3 30 3d 0e 05 32 bd
       0.0001148693 -0.30088693 0.043200877 -0.04346185
0003d0 0c 5e 1b bd 54 71 55 be 11 30 53 bd cb 6c 89 bd
       -0.037931487 -0.20844012 -0.05155951 -0.06710204
0003e0 01 cb 7f bd 01 cd 42 bd 64 ba e6 3d b2 4e bb bc
       -0.06244946 -0.04755879 0.1126602 -0.022864673
0003f0 30 d4 fc bb 9c 74 ec 3d 50 77 8b bc 5b 38 06 be
       -0.0077157244 0.11545679 -0.017024666 -0.13107435

conv1.bias f4 [16]
000000 bf fd 3e be 0e 9b 00 3e 3c 35 b9 3d 0c c2 3f 3e
       -0.18651484 0.12559149 0.09043357 0.18726367
000010 d6 85 9b 3d 28 e6 a1 bc ae 7d 43 be ea d2 69 3e
       0.075938866 -0.019763067 -0.19090912 0.22834364
000020 b2 c8 95 bd 05 91 78 bc 9c 65 34 3e 9d 1f 9e 3e
       -0.0731367 -0.015171294 0.17616886 0.30883494
000030 37 75 bb 3e f3 91 b1 3a 2e 89 38 3e 1f 28 91 3e
       0.36612865 0.0013547525 0.1802108 0.28350922

conv2.weight f4 [32, 16, 5, 5]
000000 d6 29 15 bd f1 ba 1d bd 59 83 14 3d d0 c9 38 3d
       -0.03641685 -0.03850836 0.036258075 0.04511434
000010 a8 06 b7 bc 26 a0 30 bd 54 44 0c bd 06 c8 e4 3c
       -0.022342041 -0.04312148 -0.03424485 0.02792741
000020 d8 9c a0 3d 8a 68 e4 3a 26 d3 2f bd f4 0c 55 bd
       0.078424156 0.0017426175 -0.042925976 -0.052014306
000030 17 e7 f1 bc 12 52 92 3d ff b9 46 3d fc 76 74 3c
       -0.029529138 0.0714456 0.048517223 0.014920946
000040 d3 55 6f bd 5d 88 db 3c 89 55 2a bc 73 b8 58 bc
       -0.058431458 0.026798422 -0.01039637 -0.01322757
000050 77 d9 f0 bc 94 de 9b bc ef 12 fc bc 9b 05 0b bd
       -0.02940057 -0.019027032 -0.030770747 -0.033940893
000060 19 95 42 3d a2 a7 d2 3b d6 14 14 3d 9f 04 47 3d
       0.04750547 0.006428675 0.036152683 0.04858839
000070 5c 04 5d bc a1 82 66 bb 5c d2 04 3c 65 19 d4 3c
       -0.013489809 -0.0035173076 0.008106794 0.025891015
000080 c6 67 0a 3d e7 c8 89 bc 72 a5 dc bc ae 60 35 bd
       0.033790372 -0.01681943 -0.02693436 -0.044281654
000090 a2 d8 40 ba 94 ac 3b 3c c9 75 37 3d c1 93 12 bc
       -0.00073564996 0.01145472 0.044790063 -0.00894636
0000a0 aa 56 bb bd 1f 0c 02 bc 87 d3 89 37 2b 06 76 3d
       -0.09147389 -0.00793746 1.6430173e-05 0.060064476
0000b0 c0 65 44 3c d5 0f e5 bc 8f 26 5e bd 6f a4 e6 3c
       0.01198715 -0.02796165 -0.05423599 0.02815458
0000c0 50 9d bb bc 2d f9 85 3d 5a ff 47 bd 5a 42 9c bb
       -0.02290216 0.06541667 -0.048827507 -0.004768652
0000d0 63 2d 25 bc 47 59 11 3d 82 38 97 bc b1 2e 0f bd
       -0.010081622 0.035485532 -0.018459562 -0.034956638
0000e0 e6 f7 fc bc 7b a0 8f 3d 42 12 8c 3b 91 f5 72 3d
       -0.030879926 0.07013031 0.0042746374 0.05931622
0000f0 2a f1 9f 3b 73 c8 e3 3b 7c 4c 86 bc 59 c9 f8 3c
       0.004881044 0.0069513856 -0.016393892 0.030369448
000100 9b cb 7c 3c e5 3f 90 3b 70 c4 b6 bc 09 b2 5d 3c
       0.015429403 0.004402148 -0.022310466 0.013531216
000110 04 02 e4 bc 22 a2 29 3d 02 fe d2 3c d5 25 88 bc
       -0.027832992 0.041414388 0.025755886 -0.016619602
000120 3a 1a 06 3c a8 43 0b bd 53 44 e0 3c 44 ae 92 3d
       0.008184964 -0.03400007 0.02737633 0.07162145
000130 1a bf 0b bd ab 35 f6 3b db cf 91 3c 3b 65 97 3c
       -0.034117796 0.007513722 0.017799309 0.018480888
000140 53 65 ae 3d 14 0e 15 3c a8 3b f6 bc 2d 25 25 3c
       0.0851542 0.009097595 -0.030057743 0.010079664
000150 49 cc 0e bc 09 11 6a 3d 51 b7 fc bc 30 28 80 bd
       -0.008715698 0.057145152 -0.03084913 -0.06257665
000160 af 1d 3f bb 70 37 a6 3d 13 61 1b 3d 4c 12 a8 3c
       -0.002916198 0.081160426 0.037934374 0.020516537
000170 e9 47 17 3b 27 9a 7b bc fd 3a 50 3d 54 de c9 3c
       0.0023083633 -0.015356577 0.050837506 0.024642147
000180 85 0e 4c bd 47 c2 f3 3c 0c 5d ee ba a2 38 8b 3c
       -0.049818534 0.029755725 -0.0018185689 0.016994778
000190 4f 64 b5 3c 01 fd d2 3d 05 6e f0 3c b4 a9 05 3c
       0.022142557 0.10302163 0.029349336 0.008158136
0001a0 a3 c1 45 bd 41 4d a0 3d af f6 a3 3d f7 89 bf bc
       -0.04828037 0.07827235 0.080060355 -0.023381216
0001b0 eb 3f 27 bd cd 03 ae bc 96 db 0e bc f7 a8 03 3d
       -0.04083244 -0.021242047 -0.008719346 0.03214356
0001c0 41 67 73 bb f6 40 1b bd 55 f8 07 bc 21 3a 57 3d
       -0.0037140402 -0.03790375 -0.008298953 0.05254567
0001d0 27 97 79 3d c6 18 9d 3d d9 16 17 bd cd 93 2f bb
       0.060935166 0.07670741 -0.036887024 -0.0026790977
0001e0 cc 9e b3 3c ea 86 7f 3c 2b cc 51 3d 14 de 3c 3d
       0.021926306 0.015596131 0.0512201 0.046110228
0001f0 20 3e 32 3a 16 67 23 3b 58 50 ce bc a6 e7 2a 3d
       0.00067994185 0.002493327 -0.025184795 0.041724823
000200 dc ad a2 3c 45 5a 92 bc 40 99 9b bb d4 72 39 3c
       0.019858293 -0.01786531 -0.0047484934 0.011318881
000210 5e 12 58 3d b1 90 e8 bc 64 49 72 bc 2b ae 32 3d
       0.05275189 -0.028389307 -0.0147880055 0.04362313
000220 f4 b9 d8 3d 96 96 86 3d 96 85 af bc ad 46 89 3c
       0.10582343 0.06571691 -0.021426003 0.016757334
000230 fb ee 87 3c 4f b4 13 3d 4a 19 6b 3c 72 fc 7b 3c
       0.016593447 0.036060628 0.014349291 0.015380012
000240 06 82 9f bb 3e 86 40 3c ac 35 95 3d 80 73 ab 3d
       -0.004867795 0.011750756 0.07285628 0.08371639
000250 b5 fb 42 3d 5b d0 7b 3b 04 f5 0d 3d 61 b3 47 3c
       0.047603328 0.003842375 0.034657493 0.012188763
000260 72 ad 19 bd 87 86 69 3d db 88 27 3d f0 08 34 bd
       -0.037518926 0.05701306 0.040902 -0.043953836
000270 69 57 14 bd c7 50 9c 3c c2 5d a8 3c cc 81 00 bb
       -0.036216173 0.019081486 0.02055252 -0.0019608615
000280 8b 43 ff 3c 26 ea 71 bd be 21 f8 bb 86 64 b4 3c
       0.031160137 -0.059061192 -0.0075723818 0.02202059
000290 42 a9 7c 3b 74 79 6f 3d 6c ae 17 3c cb e2 27 bd
       0.0038553034 0.058465436 0.009257894 -0.04098777
0002a0 b6 c4 e6 bc a8 4e 00 3d 3a 75 38 3d 25 c9 57 3b
       -0.028169971 0.031325012 0.04503367 0.0032926288
0002b0 ba fe 36 bd 1f fc e1 3c 4d b4 0f bd 63 59 3d bc
       -0.04467652 0.027586041 -0.035084058 -0.011556956
0002c0 51 e4 16 3c e6 86 f8 3b 5c fc 73 3c e7 33 55 bd
       0.009209708 0.0075844405 0.01489171 -0.05205145
0002d0 1e 30 14 3c d1 05 22 3d 5e 8f 4d bd dd 21 71 3c
       0.009044675 0.03955633 -0.050185554 0.014717546
0002e0 32 74 87 3c bf f4 00 bd a3 3e 23 3c 84 f7 0f bc
       0.016534898 -0.031483408 0.009963664 -0.00878704
0002f0 d2 7a 29 bd 07 31 ad 3b 41 0d 91 3c df 77 39 3d
       -0.041376896 0.0052853855 0.017706515 0.045280334
000300 6c dd 2a bd 1a a4 29 bd 7c 57 38 bc bf 43 fd 3c
       -0.04171507 -0.041416265 -0.011251327 0.030916093
000310 0b 89 1e 3d 5f 94 0c bd 65 1a 6f 3b 3f 53 33 3c
       0.038704913 -0.034321185 0.0036484238 0.01094514
000320 4e 50 ea 3c 3c 7e bb bb 30 be b2 ba 57 9f 31 3d
       0.028602745 -0.0057218354 -0.0013637003 0.04336485
000330 e8 b1 9f bb 1f 46 fb 3c 31 8b dc 3c af cc 88 3c
       -0.004873503 0.030673085 0.02692184 0.016699163
000340 16 c4 2d bc 8f f8 d9 bc 9b 3a 4a 3d b3 ef 85 bc
       -0.010605833 -0.02660778 0.049372297 -0.016349649
000350 2d c0 2f bc 7a 86 68 3d 4b 59 0f bc 5d 89 f5 bc
       -0.010726971 0.05676887 -0.008749316 -0.029972726
000360 12 0b 98 3c b4 b2 8b 3b 36 c9 ae 3c 6e 4c 90 3c
       0.018559966 0.0042632464 0.02133618 0.01761457
000370 bf 43 67 3b 0f bb c0 3b a9 6b 6a 3d 91 0d 40 bc
       0.0035288183 0.005881674 0.05723158 -0.0117219845
000380 f4 1b a5 3c 21 c9 4c 3c f8 6c c8 3c 19 cb 2f 3d
       0.02015493 0.012499125 0.024466023 0.0429183
000390 d5 5b 4c bc 2b a4 4d 3b d4 c3 59 bd 68 c4 6d bd
       -0.012473066 0.003137837 -0.053165272 -0.058048636
0003a0 ed 58 85 3c c8 ca b8 bc 3b 25 f7 3c a1 11 06 bd
       0.016277755 -0.022557631 0.03016912 -0.032731656
0003b0 6b 91 87 bd 03 37 3f bd af f6 3d 3d bc 6c 76 bc
       -0.06619533 -0.046683323 0.046377834 -0.015040573
0003c0 82 15 37 bd c5 cc 62 3c cc ab 1f bd 5d f9 21 bd
       -0.044698246 0.013842766 -0.038982198 -0.039544452
0003d0 bf 43 36 3d 91 20 23 3d 25 a6 ac bc df 8c 5d bd
       0.0444982 0.03982598 -0.021075318 -0.054089423
0003e0 59 50 a7 3b 2e 98 57 3d 4c 62 03 bc 24 49 02 3b
       0.0051060137 0.052635364 -0.008019041 0.001988002
0003f0 64 71 5f bd 4d 45 43 3b c9 59 83 3c ce ed 00 3b
       -0.054551497 0.0029795945 0.016034024 0.0019672993

conv2.bias f4 [32]
000000 f5 e6 c6 3a 1d ae 2d 3d f0 f1 6b 3b 0c 80 3b bd
       0.0015175032 0.042402375 0.003600236 -0.045776412
000010 5a 47 15 3d 03 f2 54 3d d3 b9 9c bc 57 ef b1 3c
       0.036445 0.051988613 -0.019131577 0.021720571
000020 8a 8a 57 3b 2d 51 11 3d c9 36 a2 bb 1f e6 30 3d
       0.0032888972 0.035477806 -0.0049503786 0.04318821
000030 88 7a 00 bd 7e 49 42 bd 21 99 dd ba 7f 7d 5f 3c
       -0.031366855 -0.04743337 -0.0016906598 0.01364076
000040 02 57 9b 3c 93 81 43 bd da 50 85 bc 90 04 51 3d
       0.018962387 -0.047730993 -0.016273905 0.05102974
000050 a4 03 5f 3c a7 ea 61 bc 4f 2a a5 3c 6d 0f aa bc
       0.013611708 -0.013788856 0.020161776 -0.020759309
000060 01 5d 29 bd 12 bb 1c bc 33 0b 35 3c 5a e7 60 3d
       -0.04134846 -0.009566085 0.011050033 0.054908134
000070 e7 ab 78 3c c2 56 40 bb 52 60 38 bc 66 21 15 3d
       0.015177703 -0.0029348587 -0.011253433 0.036408804

fc1.weight f4 [120, 512]
000000 5a 35 39 bb 57 2e 68 bb 47 e5 86 3c b1 aa 8d bc
       -0.002826056 -0.0035428011 0.01646675 -0.017293306
000010 71 d1 93 3c 8c fc 35 3d 99 b0 87 3c 19 a1 45 3b
       0.018044205 0.0444303 0.0165637 0.0030155836
000020 c2 99 37 3d 05 ab 72 bc 5f 9b 87 3b f0 ff e0 3c
       0.04482437 -0.014811282 0.0041383947 0.02746579
000030 26 7c 11 3d d4 fa ae bc a0 04 8d 3c 65 4d 87 bb
       0.035518788 -0.021359839 0.01721412 -0.004129099
000040 50 93 08 bc 6f 6e 69 3c 7b aa 30 3c 16 e5 4c 3d
       -0.008335903 0.014247521 0.010782833 0.05002316
000050 38 65 90 3c 63 29 b2 bb 5d d1 49 bd c0 8e 2b 3c
       0.01762639 -0.0054370626 -0.04927193 0.010471046
000060 8f 3d e2 3c 81 69 16 bc 6b 78 9c bb 58 93 8b 3c
       0.027617244 -0.0091804275 -0.004775097 0.017038032
000070 e9 dc 34 bb 83 ad 62 3c ac bd c3 3c d8 72 8b bc
       -0.0027597493 0.013835314 0.023894154 -0.017022535
000080 90 d1 25 bd 80 c3 67 3c 27 0a 1a 3b 36 43 6e bc
       -0.040483057 0.014145732 0.0023504586 -0.0145423915
000090 93 6d 07 3d ae 82 a7 3b 70 23 73 bd 03 c0 61 bd
       0.033063482 0.005112014 -0.059359968 -0.055114757
0000a0 60 d7 29 3d 73 a6 ff 3b 5c 1d 10 bd 43 73 17 bd
       0.041465163 0.0078018247 -0.03518425 -0.036975157
0000b0 b5 ae b2 bb b5 a9 af bc 9a e6 78 bc dd 96 aa bc
       -0.0054529556 -0.021443227 -0.015191698 -0.02082389
0000c0 cd af 51 3d c5 b6 0e 3d 0a 5a 22 3c 31 b7 2d 3c
       0.051193047 0.03484227 0.009909162 0.010602758
0000d0 83 9d 9a 3c 0a 9b 4c bd 8b c4 47 bb 1d 31 b4 3b
       0.018873936 -0.049952544 -0.003048214 0.005499019
0000e0 fb b2 0b bd ab a4 03 bd 32 1b cc 3c 17 78 92 3c
       -0.034106236 -0.03213946 0.024915311 0.017879529
0000f0 29 d9 23 3a 51 98 35 3d e3 5f 5f 3d 65 a1 c4 3c
       0.0006250316 0.044334713 0.054534804 0.02400274
000100 87 91 29 bc e7 2d 40 3d ca 19 e4 3a a1 db 90 bc
       -0.010349638 0.046918776 0.0017402705 -0.017682852
000110 a5 53 52 3d f3 4d 83 3c a2 09 7b 3d a4 d2 b6 3a
       0.0513493 0.01602838 0.061288483 0.0013948274
000120 96 e1 89 3c c6 97 c2 3c 63 5e f2 bc ed 61 16 bd
       0.0168312 0.023754012 -0.029586023 -0.036714483
000130 31 af 2a bd c2 1a f7 3a 67 33 21 bd 75 d1 0b 3d
       -0.04167098 0.0018852579 -0.03935566 0.0341353
000140 e1 d9 d6 3c d0 f7 4e 3d c9 2a 42 3d 07 a8 82 3d
       0.02622694 0.0505293 0.047404084 0.06379705
000150 c2 4d 54 bc f1 7a e6 3c d4 92 74 3b b9 18 ea b9
       -0.012957992 0.028134795 0.0037318962 -0.00044650378
000160 5a 48 82 bc 7f ac 45 3c f8 67 90 3d af 86 1b 3d
       -0.01590364 0.012065052 0.070510805 0.03797024
000170 70 24 99 3b 62 8b 9d 3d bc 4a 27 bd 16 e4 9d bc
       0.004673533 0.07692601 -0.040842757 -0.019273799
000180 74 a5 cb bc fb ec 0c 3c d4 db 20 bd 9b d5 74 bc
       -0.024859168 0.008601422 -0.039272144 -0.014943506
000190 01 21 e7 bb c5 ca 08 bd dd 16 36 3d 67 e3 f3 bc
       -0.007053495 -0.0333965 0.044455398 -0.02977152
0001a0 3d 9f f3 bc 9c 38 e9 b9 ae ca 2b 3c e3 06 2c bd
       -0.029739017 -0.000444834 0.010485334 -0.041998755
0001b0 3e f3 29 3d cb 51 f9 bc e1 5d b4 3c 2f c6 0b bc
       0.04149174 -0.03043451 0.022017421 -0.008531137
0001c0 f4 78 f4 3c 1d ec 6e bd dc 2a b7 bb cc ef cf bc
       0.029842831 -0.058330644 -0.005589826 -0.025382899
0001d0 92 b6 00 bd 00 d8 e9 3c c4 9a e3 bb 8b ee a6 3c
       -0.031424113 0.02854538 -0.0069459397 0.020377418
0001e0 8d 4d 41 3d fc 61 85 b9 38 7f 3e 3d 9b 12 10 bc
       0.0471931 -0.0002544074 0.046508044 -0.008793498
0001f0 cb 15 e4 3c 30 1a af 3c 41 bd cf 3c c3 cd ee 3c
       0.027842423 0.021374792 0.025358798 0.02915085
000200 5b b7 1e bd 5f ae 50 bd 88 ee 38 38 d1 5d bb 3d
       -0.03874908 -0.050947543 4.4091168e-05 0.091487534
000210 94 5e 39 3d e3 3b 81 bd 68 16 39 bd 12 b7 48 3d
       0.045256212 -0.063102506 -0.045187384 0.049002714
000220 75 ab de 3b c7 47 00 bc 51 96 98 bd a1 39 8a ba
       0.0067953416 -0.007829613 -0.074505456 -0.0010545739
000230 d6 66 1c bd 46 7a d1 bd cd d8 b1 bd fc 89 72 ba
       -0.03818401 -0.102284 -0.086839296 -0.00092521287
000240 2a ea 5e 3c 99 2a 16 bb 9a b8 09 bd c7 1d a2 3c
       0.013605634 -0.0022913574 -0.033623315 0.01978959
000250 f8 d4 18 bc 3e e8 7b bd d2 16 9b bd a8 e7 2c 3b
       -0.009328119 -0.06150078 -0.07572712 0.0026383195
000260 6e 17 6d bc 2b c2 ae bd f5 ef 31 3a 91 02 8e bc
       -0.014470918 -0.08533128 0.00067877705 -0.017335208
000270 0d 46 22 3d 61 de 5a bc 68 73 90 3d 2b 0f e1 bc
       0.039617587 -0.013358683 0.07053262 -0.027473053
000280 72 bc b5 3c 04 77 24 3c 84 6e e8 3b 88 5d 28 bd
       0.022184584 0.010038141 0.0070932526 -0.041104823
000290 0e 3d 04 bd 00 01 28 ba 5d fb 04 3d 14 8a 15 3d
       -0.03228479 -0.00064088404 0.03246628 0.036508635
0002a0 9b 01 74 bc c5 85 22 3b b1 a1 10 3d b7 ab 98 3c
       -0.014892961 0.002479897 0.03531045 0.018636568
0002b0 ae 96 d8 3c 6f 75 b2 bc 02 54 bb bc 35 9f 0f 3d
       0.026439037 -0.021784512 -0.022867206 0.03506394
0002c0 b8 f7 58 bc 8b 14 12 3d dd 06 1b 3c eb ef 67 3b
       -0.0132426545 0.035664123 0.009462086 0.0035390805
0002d0 2f 2c c0 3b 4e 9f 39 ba b4 76 83 3d 1b 63 4f 3c
       0.005864642 -0.0007080928 0.06419125 0.012657906
0002e0 9e c2 00 bc 76 13 9f bc 69 00 47 3d 0d 3f 87 3b
       -0.0078589 -0.01941846 0.048584376 0.0041273893
0002f0 39 78 9b bc 2d 30 1b bd 5a 62 1c 3d 9c b7 a3 3c
       -0.018978225 -0.03788774 0.038179733 0.019985013
000300 a7 17 60 bc c0 13 f0 bc 26 90 c7 bb e1 07 fe bc
       -0.013677514 -0.029306293 -0.006090182 -0.031009616
000310 9a 1c 07 3d b2 6e 09 bc c2 67 06 bc c0 b6 05 bd
       0.03298626 -0.008388208 -0.008203449 -0.032644987
000320 61 1b d8 37 9e 8c 0a bc e4 a6 1c bb f8 2e 80 bc
       2.5761956e-05 -0.008456377 -0.0023903186 -0.015647396
000330 96 37 a0 3c 73 69 ac 3d 60 70 c4 bc 68 33 a5 3c
       0.019557755 0.0841855 -0.023979366 0.020166114
000340 14 20 ee 3c 93 1b 49 3d 29 e1 a8 3c df 52 3d bc
       0.02906803 0.049098562 0.020615177 -0.011555403
000350 7b 3e 14 bb 07 36 ef 3c 1e c7 ef bc f8 4f 3c bd
       -0.002262025 0.029200567 -0.029269751 -0.0459747
000360 be da 82 3d 88 3e f3 3c 0e e7 40 bd 65 61 86 bc
       0.06389378 0.029692903 -0.04709535 -0.016403863
000370 b3 1c 9e 3c 15 51 64 bc d4 70 97 bc a6 dc b1 3b
       0.019300794 -0.013935347 -0.018486418 0.0054279147
000380 0c 25 01 3c 35 6b 5e 3c fc c8 a9 ba 16 c9 47 3d
       0.007882368 0.013575365 -0.0012953575 0.048775755
000390 dd a1 be 3c 19 f8 10 3d 47 c9 4b bd a5 c8 a5 bc
       0.023270542 0.035392854 -0.0497525 -0.020237276
0003a0 e5 7a 6e 3c bc 59 ef ba 72 d2 67 ba 29 92 f6 bb
       0.0145556675 -0.0018260996 -0.00088433095 -0.007524748
0003b0 35 2d 32 3d 5e 35 3f 3d e6 9d 92 3d 25 b5 69 bc
       0.043500144 0.046681754 0.07159023 -0.01426438
0003c0 b1 24 af 3c 23 c0 38 bd ac 5d 5d ba 12 33 0d bd
       0.0213798 -0.04510511 -0.0008444439 -0.034472533
0003d0 05 76 8d 3c 89 37 4c 3b 7f 5a 1f 3c 14 77 ab bb
       0.01726819 0.0031161031 0.009726166 -0.005232701
0003e0 11 37 a2 bc 10 9f a2 ba 8d ae b4 bc cf 53 fb 3c
       -0.019801648 -0.0012407023 -0.022055889 0.030679611
0003f0 c0 20 a9 3b f7 8b 85 3c d0 8b b9 bc 40 03 06 3d
       0.005161375 0.016302092 -0.022649676 0.032717943

fc1.bias f4 [120]
000000 10 97 03 3d 42 58 86 bc fe 3f 11 3d c8 bb 6d bb
       0.032126486 -0.016399506 0.03546142 -0.0036275256
000010 f5 87 d1 bc 57 18 20 bb 49 af ff bc 0e 12 f7 3c
       -0.025577525 -0.002442857 -0.031211512 0.030159976
000020 d7 ce cf 3c 19 86 07 bc f4 a2 a0 bb 92 f5 80 bc
       0.025367184 -0.0082717175 -0.004902238 -0.015742097
000030 f7 f4 b3 3c 92 b7 e2 3c a6 c3 a6 3c 84 dc 0f bc
       0.021967394 0.027675424 0.020356964 -0.008780602
000040 10 5d 7f 3c de bd 30 bd d3 fa 93 bc e5 b0 0c 3d
       0.015586153 -0.04314982 -0.018063938 0.034348387
000050 21 0d 92 bb 85 5d 3e 3d bc cf 98 bc d0 90 bf bc
       -0.0044571315 0.046475906 -0.018653743 -0.023384482
000060 1e 85 16 3d 58 88 e9 3c 5b 2e 4a 3c 3f b8 e6 bc
       0.036748044 0.028507397 0.012340154 -0.028164027
000070 e7 be b6 3a 09 2e 4c bd 4a 46 1f bc 70 09 06 bd
       0.0013942391 -0.04984859 -0.009721348 -0.032723844
000080 76 89 7f 3c ce ab 06 bd 41 a9 10 bd db 6c 3b bc
       0.015596738 -0.03287869 -0.035317663 -0.011439527
000090 27 a6 08 3d 31 b2 17 bd 77 de 9b 3c cf bf 1d bc
       0.03336158 -0.03703517 0.019026978 -0.00962825
0000a0 85 44 12 bd 6f ac d1 bb 9b 00 32 3d 8b 44 25 bd
       -0.035709877 -0.0063987295 0.04345761 -0.04034857
0000b0 3a c2 0e 3c 31 2e 9c bc e3 d2 e4 bc fa d7 ee bc
       0.008713299 -0.019064995 -0.02793259 -0.02915572
0000c0 51 ec fa 3c 5b bc 1a 3c 0c 8a d2 3c e5 19 53 3c
       0.030630263 0.0094443215 0.025700592 0.012884592
0000d0 51 e6 61 bc 06 af 89 3c 4c f1 db bc 89 b2 4f bc
       -0.013787822 0.01680709 -0.026848458 -0.012676843
0000e0 fa 75 cc 3b 87 b5 56 3c 04 be 04 bd b9 07 cc 3c
       0.00623965 0.013104803 -0.032407776 0.024906026
0000f0 75 84 22 bd 9b 6a b8 bc 90 0d 0d bd a0 67 18 3d
       -0.039677102 -0.022511771 -0.034436762 0.0372082
000100 00 9d f3 3c ff e1 97 bc c6 30 4c bc 4f b3 fd bb
       0.02973795 -0.01854038 -0.0124628 -0.0077423225
000110 20 c2 27 3d bd 49 38 bc 0b 44 18 3b 88 34 ed bc
       0.040956616 -0.011248049 0.0023233916 -0.028955713
000120 ba 0b f0 bc 5d 19 55 3d f9 b8 21 3d 75 65 1d bd
       -0.029302467 0.05202614 0.039483044 -0.038426835
000130 f9 25 85 3c 88 d3 87 3b 73 ac 96 3c cc ec 8c 3c
       0.016253458 0.0041450895 0.018392777 0.017202757
000140 5e 5a 04 3c f0 86 d0 3b 64 09 e8 bc 57 c1 db 3c
       0.008078186 0.006363742 -0.02832479 0.02682559
000150 c0 6a 3f bc cf 40 af 3a af 03 68 bc 92 d3 43 bc
       -0.011683166 0.0013370755 -0.0141610345 -0.011952298
000160 81 0a ad bc 9a 4a 0b 3d c1 ac d8 bc 7c b3 02 bd
       -0.021123173 0.034006692 -0.026449563 -0.03190945
000170 39 d1 30 3b 46 c0 ee bc 26 70 3e 3c c1 85 86 bc
       0.0026980175 -0.029144417 0.011623418 -0.0164212
000180 3b dc cb bc 70 1a 2d 3c b9 c4 11 3d ed 8e ab bb
       -0.024885288 0.010565385 0.035588 -0.005235544
000190 d8 d2 13 bd 70 3a 42 3c c3 37 42 bc c9 1b 03 3d
       -0.03608975 0.011854753 -0.011854115 0.03200892
0001a0 3d dd 90 bc 71 84 15 3d 78 9f c4 bc 0f 15 31 bd
       -0.01768362 0.03650326 -0.024001822 -0.043232974
0001b0 16 1d 0c 3d d9 a9 e0 3b eb 89 c7 3c 6a c1 e5 bb
       0.034207426 0.006856185 0.024357757 -0.007011582
0001c0 d0 7e a9 3c f4 95 8b bc 10 d4 11 3d a8 f5 45 3d
       0.020690352 -0.017039277 0.03560263 0.04832998
0001d0 31 a0 f1 bc 14 eb e8 bc e4 b5 01 bd ce 03 6e bc
       -0.02949533 -0.028432406 -0.031667605 -0.014527274

fc2.weight f4 [84, 120]
000000 ff 19 87 bc ef 5a 05 3e 2d 77 44 3d 8e 0e 41 bd
       -0.016491888 0.1302297 0.047965217 -0.04713302
000010 f6 9d d3 3d e7 cc 47 bd 60 dd 80 bd 3f 56 b1 3d
       0.10332863 -0.048779394 -0.06292224 0.08659028
000020 32 7c dc 3d 76 4b 63 bd ac 73 72 3c 17 d1 a9 3d
       0.10765876 -0.055491887 0.014798086 0.08291834
000030 5b 49 94 3d 27 44 e5 3d 3c 01 0c bd 30 aa 1d 3d
       0.07240554 0.1119464 -0.034180865 0.03849238
000040 ad ae 48 3d bc 08 c6 3d bc 33 8a 3c a4 e9 bb 3d
       0.04899471 0.09669635 0.016870372 0.09175423
000050 31 ad 89 bd b8 48 a0 3d c0 52 1c bd 57 a2 8b bd
       -0.06722487 0.0782637 -0.038164854 -0.06818073
000060 80 e2 72 bd d0 48 4b 3d ca e8 b3 bd a4 89 a5 3d
       -0.05929804 0.049629986 -0.08784635 0.080828935
000070 e2 fb 88 3d aa 0f b7 bd 29 d5 0f bc f8 c5 84 bd
       0.06688668 -0.089385346 -0.008778849 -0.06483072
000080 8d 5c 4a bc 7c 1b 42 3d 3a 86 b3 3a f2 fb c0 3d
       -0.012351167 0.047389492 0.0013696619 0.09423055
000090 c9 01 76 bd 6d 5c 23 3d 86 e1 bb 3d 9f 28 b9 bd
       -0.060060296 0.039883066 0.091738746 -0.09040951
0000a0 7e 11 52 bc a5 3c 08 bd 14 f1 fc bb 67 f9 08 3d
       -0.012821553 -0.03326096 -0.0077191684 0.033440974
0000b0 f4 3c 7d bd 3a 94 61 bd df 03 6b bd 79 c1 8c 39
       -0.061825708 -0.055073 -0.05737674 0.0002684703
0000c0 07 64 00 3d 99 83 70 3d 43 f1 02 3e 75 19 a1 3d
       0.031345394 0.05871925 0.12787347 0.07866184
0000d0 b5 ce 3a bd 2a de 45 3d 68 a3 f3 ba cf 15 ac 3d
       -0.045607287 0.048307575 -0.0018588128 0.08402597
0000e0 26 a1 d8 bd e7 c5 92 bd 60 46 6d bd bd 89 a2 3d
       -0.105776116 -0.07166653 -0.057928443 0.07936428
0000f0 0f d9 29 3b c6 28 21 3c 78 96 cc 3d f4 a0 98 3d
       0.002591673 0.009836381 0.09989637 0.07452574
000100 74 85 e9 bd 32 e3 05 bc 3c bd aa 3c c7 e0 3f bd
       -0.11402407 -0.008171843 0.020842187 -0.046845224
000110 a7 4c b5 bd 6a 90 8f bc 41 c4 cd 3d c5 e8 1e 3e
       -0.08852511 -0.017524917 0.10047198 0.15518482
000120 5d c5 b2 bd b1 e6 18 3d 47 38 16 3d 97 09 da bc
       -0.0872905 0.03732938 0.036674764 -0.0266159
000130 93 19 2f 3b 69 19 87 3d 0e 8d 4e bd d4 d8 af 3b
       0.0026718124 0.065966435 -0.05042749 0.005366424
000140 b9 7d 89 bb 56 5d a1 bd cf d7 99 bd 96 73 85 bc
       -0.0041958955 -0.078791305 -0.07511865 -0.016290467
000150 53 2a e4 bd 21 a7 af 3d e3 a7 e2 3c 78 b9 af 3d
       -0.11140885 0.08576799 0.027667945 0.08580297
000160 5b 16 91 bd 65 1f f7 3c d7 e7 e5 bc 0a 00 47 bd
       -0.07084342 0.030166337 -0.028064651 -0.04858402
000170 66 2a 95 3c e0 e6 c5 3d 0a bc 63 bb 78 a4 ea 3d
       0.018208694 0.096631765 -0.0034749531 0.11457151
000180 6a 18 8b bd 48 d5 aa 3d eb 87 b7 3d 01 b5 cb 3d
       -0.06791766 0.083414614 0.08961471 0.09946633
000190 2d 40 72 3d 89 83 9c bd ae 31 b6 bd 24 8e 25 3d
       0.059143234 -0.07642276 -0.088961944 0.04041876
0001a0 91 7a 19 bd fa 16 96 3d b3 b5 b3 bd 77 b4 b4 3d
       -0.037470404 0.07328601 -0.08774891 0.088234834
0001b0 96 e8 0c 3d 2e 6d d4 3d a2 b5 11 bd 14 68 b7 bc
       0.0344015 0.10372387 -0.03557361 -0.022388496
0001c0 15 7a 01 3e 57 a4 8f 3d ad 88 9e 3d 84 25 4b 3c
       0.12644227 0.07013767 0.077409126 0.012399081
0001d0 18 ab 5a bd 0a 05 b7 3d eb 4a 6e 3d 8c 87 42 bc
       -0.053385824 0.08936508 0.058176916 -0.011873137
0001e0 04 9c 5b 3d 63 0a 60 3d b5 8a 80 bb d1 5a be bb
       0.053615585 0.054697406 -0.003922785 -0.005809166
0001f0 f7 cc 63 3c 77 89 8b 3d 41 31 57 bd 68 c6 e1 bc
       0.013903848 0.06813329 -0.052537207 -0.027560428
000200 37 64 46 bd 10 f6 67 3d d3 11 b8 3d 60 b0 63 3c
       -0.048435416 0.056631148 0.08987775 0.013897032
000210 72 f9 f7 bc 08 6b 44 bd db c5 a0 bd 56 b8 99 bd
       -0.030270312 -0.047953635 -0.07850238 -0.075058624
000220 f9 06 b8 bb 43 eb 96 3b 9a c7 ac bd f2 e6 8a bd
       -0.0056160656 0.004605682 -0.084365085 -0.067823306
000230 58 41 b2 3c c5 e5 18 bd c3 3c a9 3c 7d 07 50 3d
       0.021759674 -0.0373285 0.020658856 0.05078839
000240 75 d8 86 3d 6c 8f 47 3d df 6a 7a 3b 80 98 90 3d
       0.06584255 0.048720762 0.0038210673 0.07060337
000250 6c 74 65 3d 54 22 9e bd ee 4b 66 bd b0 2e 02 3d
       0.05601923 -0.07721391 -0.056224756 0.031782806
000260 fd 20 81 3d 48 12 13 3b 6c 23 6e bb eb 77 b7 3b
       0.0630512 0.0022441316 -0.003633703 0.005599012
000270 ac 64 43 bd 55 01 9c 3d b4 e1 91 3d 7a 4b cf 3c
       -0.04770343 0.076174416 0.071231276 0.025304545
000280 89 7f 99 bd ba 61 4f 3c 65 bc b5 3d c3 83 24 ba
       -0.074950285 0.012657577 0.08873824 -0.00062757375
000290 f7 59 ce 3d fc c4 9d bd a0 7d 4c bd a5 cb 01 3e
       0.10075753 -0.077035874 -0.049924493 0.1267534
0002a0 56 03 b9 3d bd 34 a1 3d 40 c6 31 bc fd 1d 9d 3d
       0.090338394 0.07871387 -0.010850489 0.076717354
0002b0 20 4f 6f bd fc ab 3d bd d5 a5 bd 3d af 03 5a bc
       -0.05842507 -0.046306595 0.092601456 -0.013306542
0002c0 b9 cf 4c 3d de 5c c8 bb d7 64 c0 3d 7d 7c 54 bb
       0.050002787 -0.0061145863 0.09394234 -0.0032422834
0002d0 8c d6 22 3d e8 8b 85 3d 6f 9c 81 bd c0 0a 94 3b
       0.03975539 0.065208256 -0.063286655 0.004517883
0002e0 30 2d de ba dd 8b a5 bd df cb 18 bc ce db b5 bd
       -0.0016950723 -0.080833174 -0.00932595 -0.08879815
0002f0 b6 dc 95 3d 05 43 95 3d 8a b3 09 bd ab db 75 3c
       0.07317488 0.072881736 -0.033618487 0.015005986
000300 80 56 3f bd 21 86 5f bc da 87 38 3c d4 c1 91 3c
       -0.046713352 -0.013642819 0.011262858 0.01779262
000310 0f d2 7b bd 08 e3 90 3d e5 33 de bc ce 42 df 3b
       -0.061479624 0.07074553 -0.027124355 0.0068133837
000320 9a a7 f0 3d 19 f4 3e 3d b7 79 1b bd f5 45 60 3d
       0.117507175 0.04661951 -0.037957873 0.054754216
000330 8a 42 6b bd d3 55 b3 ba 58 0b ce 3d c0 a2 d6 bb
       -0.057436503 -0.0013682194 0.100607574 -0.006550163
000340 2f 3d a4 bc de 08 bf 3b 2c 50 97 3b 48 46 17 3d
       -0.020048706 0.0058299145 0.0046177115 0.03693226
000350 8a 68 c1 3d db 46 b5 3c bc 70 94 3d 00 49 50 3d
       0.09443767 0.022128513 0.07248065 0.05085087
000360 9d f3 aa bd 69 11 bb bd dc ea 79 3d ac fc aa 3d
       -0.08347247 -0.0913418 0.061014995 0.083489746
000370 71 f3 89 3d b2 b7 1d 3d 7a 7f 17 bd 82 3c 89 bd
       0.06735886 0.038505264 -0.036986805 -0.06700994
000380 d6 2c c1 ba bb c0 a4 bd a9 89 21 bd 36 ef a3 3d
       -0.0014738094 -0.08044573 -0.039437924 0.0800461
000390 ca 8a 54 3d e0 79 84 bd c0 22 b0 bd 88 96 0d 3c
       0.051890172 -0.06468558 -0.08600378 0.0086418465
0003a0 a3 01 e2 3c 68 82 7d bd 3b 1c a6 bd da a4 8d 3d
       0.027588671 -0.061891943 -0.08110853 0.069162086
0003b0 4f 05 91 3d d2 47 b0 3d 86 97 00 bd 88 26 ac 3d
       0.07081091 0.08607449 -0.031394504 0.08405787
0003c0 02 0b 91 bd ec f1 c9 3d 15 14 f6 3c 0e ab a0 3d
       -0.07082178 0.09860596 0.030038873 0.07845126
0003d0 d4 fe d4 bc 21 73 ad bb 5f 23 8a 3c e1 6c 80 bd
       -0.026000418 -0.0052932655 0.01686257 -0.06270767
0003e0 a9 e7 c1 3d f7 c2 ec 3c d0 76 3a bd db 2a ac bd
       0.09468014 0.02890156 -0.045523465 -0.084066115
0003f0 77 dc f0 3c 32 bb 19 3d 9f 44 3f bc 77 9a b5 bd
       0.029402 0.03753204 -0.011674075 -0.088673525

fc2.bias f4 [84]
000000 50 0b a4 bd 57 7d 80 3d 37 96 a4 3d ad e5 f1 bc
       -0.0800997 0.06273907 0.08036464 -0.029528463
000010 b5 6b b9 3d f1 c4 b0 3d cd f4 98 bd 0b 2a e8 3c
       0.090537466 0.086313136 -0.07468567 0.02834036
000020 bb 5d 40 bd d1 05 75 bd 12 39 ff 3c fe 13 04 bd
       -0.04696439 -0.05982 0.031155143 -0.03224563
000030 77 3d 2c 3d ac 85 41 3d f9 bf 19 bd ef 93 b5 3d
       0.042050805 0.04724662 -0.037536595 0.08866107
000040 b8 0b 30 bd b5 80 ad bd 2e c7 0b 3a 9b c5 c8 bb
       -0.042979926 -0.084718145 0.0005332109 -0.006127072
000050 a5 89 c5 3c 6f 54 21 bd 83 a2 43 bd 74 b0 ab bd
       0.024113486 -0.039387163 -0.047762405 -0.08383265
000060 ad 77 a1 3d 69 10 a8 bd e8 3f 64 bd 99 5c 8e 3d
       0.078841545 -0.08206255 -0.05572501 0.06951255
000070 b9 2d e3 3c f6 45 aa bd 39 a1 07 bd a8 97 be bd
       0.027731763 -0.08314125 -0.03311274 -0.0930627
000080 84 79 d1 3d d2 cd b3 bd b5 81 11 bd 80 d9 2e bd
       0.102282554 -0.087794915 -0.03552409 -0.042687893
000090 2d 49 7a 3c 15 54 be 3b 78 8e 73 3d b2 b8 4c 3c
       0.0152762355 0.005808363 0.05946204 0.012495207
0000a0 cc 91 a5 bd e8 50 38 bd 18 b8 92 bd 55 e1 ae 3d
       -0.08084449 -0.044999033 -0.07164019 0.085390724
0000b0 c6 d8 d0 bc 60 27 33 bd dc 0d 5b bc 8d 99 74 bd
       -0.02549399 -0.043738723 -0.013370004 -0.05971675
0000c0 f0 13 52 3d 31 53 b7 3d 59 b6 cd ba e4 85 9b 3d
       0.051288545 0.089514144 -0.0015694603 0.07593897
0000d0 be 1f 26 3d ad 10 9d 3d 28 ec 0f bd 95 b8 09 3b
       0.040557615 0.07669196 -0.035137326 0.002101456
0000e0 87 12 93 bd 39 6d 7c 3c 0a 58 1f 3d 60 9e 81 bd
       -0.07181268 0.0154069 0.03890232 -0.06329036
0000f0 93 b5 58 3d cf 6b 9b 3d c6 71 88 3d 38 0e b2 bc
       0.052907538 0.07588922 0.066623256 -0.021735296
000100 43 a6 6b bd a6 dd 27 3d b4 87 38 3d 7c e1 8b bd
       -0.057531606 0.040982865 0.04505129 -0.06830117
000110 bd 58 c2 3c f0 ca da bc ff 1c 25 3c 72 6b ef 3d
       0.023723954 -0.026708096 0.010077714 0.116904154
000120 d5 eb 84 3d 23 25 c3 3d 6a cc 5d bd ee 8d 98 bd
       0.06490294 0.09528568 -0.054150023 -0.07448946
000130 24 a9 c6 3d d1 64 7e 3d 15 99 34 3d a8 e6 95 3d
       0.0970023 0.062107865 0.044091303 0.07319385
000140 8d dc 44 bc 66 f2 0f bd df 6a 9f bd 81 53 cd bc
       -0.012015474 -0.03514328 -0.07784056 -0.025064232

fc3.weight f4 [10, 84]
000000 37 fc a8 3d d5 0d 2e 3e 61 d2 c1 3d 76 59 84 3d
       0.08251231 0.16997464 0.09463955 0.06462376
000010 18 13 f8 bc 55 fa 43 3e 34 2c 95 bd a3 49 81 3e
       -0.030282542 0.19138463 -0.07283822 0.25251493
000020 bd 21 45 3c a8 79 73 bd f6 8d 28 bd 33 32 e1 bc
       0.01203197 -0.059442192 -0.04115101 -0.027489757
000030 dd 92 c0 bd 6a 86 1e 3e ae 53 93 3c 7f 20 7f bd
       -0.09403012 0.15480962 0.017984238 -0.06228685
000040 80 f8 a9 3c 86 f7 81 bd 0c c3 92 3e ff 10 ba 3d
       0.020748377 -0.063460395 0.28664434 0.09085273
000050 33 50 13 3e 8b 46 19 be ce 73 79 3c 56 9c 7c 3b
       0.14386062 -0.14968316 0.015225364 0.0038545332
000060 b3 3d 45 be e0 d9 1b 3d be 2d 28 bd f5 04 ee bc
       -0.19261818 0.03804958 -0.04105925 -0.029055098
000070 c6 0b 78 3e 29 e1 4a 3d 11 da 20 3d a6 32 05 3d
       0.24223241 0.049531136 0.039270464 0.032519005
000080 04 3d 25 be 15 1d ae bd 65 18 8a 3d ca a1 5e 3d
       -0.16136557 -0.08501641 0.06742934 0.054353513
000090 05 14 83 bd d9 fb 2c be 64 39 f6 bd d3 63 4a 3d
       -0.06400303 -0.16892947 -0.12022665 0.049411606
0000a0 42 da a8 bd f0 87 c9 3c 76 68 cc bd 27 f9 1b 3e
       -0.082447544 0.024600953 -0.09980862 0.15231763
0000b0 1a 8b 44 be 52 6a 3c be ba eb 65 3d 32 a1 5f 3c
       -0.19193688 -0.18399933 0.05613301 0.013649272
0000c0 72 ed 54 be 9b 8b d7 3d 06 92 14 be fb a9 ab bd
       -0.20793703 0.105246745 -0.14508829 -0.083820306
0000d0 58 3f 50 be b9 50 9b bd 08 dc dc bc 4f 60 64 bd
       -0.20336664 -0.07583756 -0.026960388 -0.05575591
0000e0 8a 54 36 bd 33 4b d2 3d fb 76 3e be a7 37 a6 3d
       -0.044514216 0.10268249 -0.18600075 0.081160836
0000f0 f3 26 6a bd 88 b0 cb bd 17 d2 c9 bd ff eb 82 3d
       -0.05716605 -0.0994578 -0.098545246 0.06392669
000100 d6 22 c7 bd 4e ae bc 3d 4a f0 83 3d 8c b2 fe bc
       -0.09723441 0.092129335 0.06442316 -0.031090997
000110 1a d5 6d bc 45 0a 05 be ec 1a 50 be 2d d4 3c be
       -0.014516139 -0.12992199 -0.2032277 -0.18440314
000120 10 47 20 bd d8 b3 1f be a7 f7 86 3e 32 3b 93 3d
       -0.03913027 -0.15595949 0.2636082 0.07189025
000130 eb 38 c7 3d a1 af 1e be 62 81 df 3d c2 b4 ad 3d
       0.09727653 -0.15496685 0.1091335 0.084817424
000140 22 b2 ed 3d 9b 5a ac bd 88 f1 18 3e d8 97 bd bc
       0.11606242 -0.08415719 0.14935887 -0.023143694
000150 39 90 71 3d 64 8e 3f 3d bb 55 f1 bd 4f c3 5f 3e
       0.058975432 0.046766654 -0.1178393 0.21851848
000160 4a 70 72 3c 07 71 02 be 07 e2 91 3c 20 b1 4d be
       0.01479728 -0.12738429 0.017807974 -0.20087099
000170 d5 6a 11 be ea 90 14 3d a1 9c b1 3d 2e cc 19 bd
       -0.1420091 0.036271013 0.08672453 -0.037548237
000180 6d b2 40 bc 00 44 c1 bd ca 07 79 bd ba a3 4b be
       -0.01176129 -0.09436798 -0.060798444 -0.19886675
000190 32 f8 0a 3e 40 e4 d5 bc 5d 81 59 be 3e b0 44 3e
       0.13571241 -0.026109815 -0.21240754 0.19207856
0001a0 54 30 1b 3e 40 15 5d 3e 86 7a 9a 3d 77 b9 e8 bd
       0.15155154 0.21590137 0.07542901 -0.113634996
0001b0 0b a3 69 3e 1b ba 44 3e e7 f7 fa bc 06 eb cd bc
       0.22816102 0.19211619 -0.030635787 -0.025136482
0001c0 43 07 d8 3d b7 31 13 bc 6b 7e 51 bd 75 8d 20 bc
       0.1054826 -0.008984021 -0.051145952 -0.009799351
0001d0 b4 41 4f 3e cc c6 bf 3c 4d a4 57 bd 87 35 df bd
       0.20239908 0.023410223 -0.052646924 -0.108988814
0001e0 70 48 8d 3c 45 bc 3b bd 8c 8b da 3d da b2 b6 3d
       0.017246455 -0.045833845 0.10671148 0.08920832
0001f0 3f ec 98 bd ce 26 bb 3d ea 66 96 bd c8 bf 45 3e
       -0.07466935 0.09138261 -0.07343848 0.1931144
000200 54 50 2e be 4a d5 8a be 81 4b 0c 3e 72 82 10 3c
       -0.1702283 -0.27115852 0.13700677 0.008820163
000210 0a a3 4a 3d ec 56 08 3e 0e c5 64 be f5 59 b9 bd
       0.049471892 0.13314408 -0.22340795 -0.09050361
000220 41 d7 d8 bd cd 44 fd 3d 45 36 46 3c 13 7b 41 bd
       -0.105879314 0.12366638 0.0120979 -0.047236513
000230 85 20 bc b9 07 7a b3 bd c9 86 ba bc a8 2e ab 3d
       -0.00035882383 -0.08763509 -0.022769349 0.08358508
000240 32 db 41 3e 9e 59 fa bd e3 35 b1 bd 68 91 41 be
       0.18931273 -0.12224124 -0.08652856 -0.18903124
000250 8f cc 3a be 47 76 14 be b5 4f c1 bd 00 2e dd bd
       -0.18242095 -0.14498244 -0.09439031 -0.107997894
000260 a9 56 cc bd d4 b0 4d 3d 7e 93 3e 3e c1 9c 80 3e
       -0.099774666 0.050217465 0.18610951 0.25119594
000270 34 16 8f bc d8 ac 54 3e 11 e9 2f be 3f 7c db 3d
       -0.017466642 0.2076906 -0.17178752 0.107170574
000280 24 f9 70 3e e5 3a 38 be 4d 51 9c 3d cd c8 9f 3d
       0.2353254 -0.17991216 0.076326944 0.078019716
000290 e1 55 46 3c fa 5c 44 be c3 d9 21 be 02 c2 f1 bd
       0.012105436 -0.19176093 -0.15805726 -0.11804582
0002a0 cc c2 29 be 95 6a 06 3e 15 12 8a bd 3c 0d c0 bd
       -0.16578215 0.13126595 -0.0674173 -0.09377524
0002b0 c7 4f 23 be f0 92 67 3e e6 10 45 bd 54 f5 1e be
       -0.15948401 0.22614646 -0.04811182 -0.15523273
0002c0 ce 87 2c 3d bd e5 9c 3d 70 aa 2a 3e 91 3d 7b bd
       0.0421217 0.076610066 0.16666579 -0.06133801
0002d0 3f 0a e2 3d 8f 9d 7d be f8 42 15 3e d5 88 e6 bd
       0.110371105 -0.24767135 0.14576328 -0.112565674
0002e0 0d b1 c1 bd d1 64 81 3d f5 a3 66 3d a6 32 1d 3e
       -0.09457598 0.06318057 0.056308705 0.15351352
0002f0 15 d8 96 3c b3 f0 28 be 6e 12 31 be 47 fa 51 3d
       0.018413583 -0.1649807 -0.17292187 0.051264074
000300 d3 5b 47 3c 87 f7 0a 3e 18 93 e6 3d cd e2 a8 3b
       0.012167889 0.13570987 0.11258525 0.00515399
000310 5d 2e 03 bd aa 1a da 3d a7 29 d4 bb 32 f8 b2 3d
       -0.032026637 0.10649617 -0.006474692 0.08738746
000320 d3 3d bc bc 67 23 36 3d ea eb 42 3d 95 df 7b 3d
       -0.022978699 0.044467356 0.047588266 0.06149252
000330 aa bc 70 be 0a 4d 80 bd d7 41 6d 3e d0 cf e1 bc
       -0.2350947 -0.06264694 0.23169647 -0.027564913
000340 1b d0 ac bc 40 6e 93 bd 76 27 54 be 0a 5b 8f 3d
       -0.021095326 -0.07198763 -0.20718178 0.06999786
000350 8c a7 4b 3d 67 54 6a be 39 21 2f 3d db ff a4 bd
       0.049720332 -0.2288376 0.042756293 -0.08056613
000360 24 84 94 3e 03 25 c0 bd 6f b6 8b bd c2 5f 62 3d
       0.29007065 -0.093820594 -0.06821906 0.055267103
000370 23 e3 31 be 57 fc 46 be c9 55 19 be f3 30 fb bc
       -0.17371802 -0.19432198 -0.1497413 -0.03066299
000380 04 c3 2f be 36 ea 28 bd f5 c6 d2 3d f1 6f 0b bd
       -0.17164236 -0.041238986 0.10291854 -0.034042303
000390 cf 84 28 3e fc 44 07 be 12 ce 87 3d cb 15 44 3e
       0.16456912 -0.13209909 0.06631102 0.19148938
0003a0 b9 ce 37 bb 44 aa 6f 3e d6 b3 5b bd 5b 03 eb bd
       -0.00280468 0.23404795 -0.0536383 -0.114752494
0003b0 03 c7 81 3d 74 46 b3 3d 42 3e 46 3d 7d ff 53 be
       0.063367866 0.08753672 0.048399217 -0.2070293
0003c0 67 f0 ab bd d5 5e 72 3d 3e ed 91 3d 6e 38 c2 3c
       -0.083954625 0.05917247 0.071253285 0.023708548
0003d0 10 6a 54 be 2c 46 1e 3e 11 c3 33 bd de 3d 49 be
       -0.20743585 0.15456456 -0.0438872 -0.19652507
0003e0 dc bf 03 3e 34 3f 50 bd a8 61 b4 3e 06 72 2a 3e
       0.12866157 -0.050841525 0.35230756 0.16645059
0003f0 3f 06 58 3c 82 d5 6a bd 56 07 02 3d f6 6e 59 be
       0.013185083 -0.057332523 0.031745277 -0.21233734

fc3.bias f4 [10]
000000 62 76 b2 bd e1 a7 be 3d d5 14 0f bc 6c 72 5c 3d
       -0.08713986 0.09309364 -0.008732994 0.05382006
000010 87 c9 ae bd f4 18 cb 3d be 1b 0a 3d 2f 97 8a bc
       -0.08534532 0.09916869 0.033717863 -0.016917793
000020 d0 51 41 3d 4d 3d 48 3d
       0.047197163 0.048886586
