10_gan/fd_vgg_mnist.pth (torch, 298082 bytes, 56 tensors)

conv1.weight f4 [20, 1, 3, 3]
0.17851157 -0.23491974 0.29431078 -0.12448302 0.15442137 0.30988613 0.15987107 -0.113697946
-0.30978006 0.023165226 -0.28121272 -0.030918946 0.19468318 -0.09151865 -0.18741444 -0.06540768
-0.19784479 0.16093966 0.18303494 0.028674433 0.10867318 0.055772614 0.108318254 -0.18590839
-0.16814813 -0.13355222 -0.1997427 0.22290878 0.0959569 -0.09603972 -0.35926172 -0.24290434
-0.14083351 0.105515674 0.2533824 0.19394757 -0.13113701 0.05822677 0.1769625 -0.2212238
-0.23667772 0.039987996 -0.27427623 0.13345008 0.09200687 0.25803226 -0.1341098 0.11791928
0.06719657 0.04008304 0.20204645 0.17035732 -0.043659702 -0.20317751 -0.123485334 0.07999284
-0.28911883 -0.15076244 0.27724084 0.2688875 0.1050422 0.20638405 -0.19335882 0.205359
-0.18572612 -0.026880618 -0.00036368606 0.22871302 0.015115686 -0.21390355 -0.23217924 0.22345248
-0.08839392 -0.12637796 0.22295143 -0.1886722 -0.2115457 0.27585867 0.24451432 0.050282165
-0.08585665 0.0050693746 0.07434181 -0.07852009 -0.22588383 -0.19427976 0.13103612 0.0715685
0.3263702 -0.014035109 0.12551713 0.050036263 0.043841917 0.03432629 0.19557248 0.12605943
-0.123113625 -0.3277191 -0.011809778 -0.19504023 -0.27463594 0.16254409 0.33503175 0.2748519
0.0922172 0.18657894 0.24708058 -0.2177026 0.14464171 0.06002521 0.13789456 -0.0025553661
0.22931194 0.050772697 0.14957239 -0.16021669 0.21262625 -0.042576134 -0.24332467 0.25883332
-0.16848603 0.21722737 -0.32906085 -0.16316171 0.012267845 -0.091744974 -0.05406844 0.009354957
-0.2409976 -0.12056947 -0.17626232 0.035411797 0.31752437 0.3156094 -0.03132173 -0.13785869
0.27348703 0.19857036 0.06489075 -0.0240338 0.029225765 -0.35970798 0.14317062 -0.11389918
-0.24865139 -0.08369845 0.06423172 -0.16237012 -0.028952068 0.111778334 0.12526667 -0.15283626
0.36714154 0.12369342 -0.10777227 0.19279885 -0.07892754 -0.102552876 -0.11990207 0.3526552
0.04730514 -0.29392418 -0.36059475 -0.0031963515 -0.19859934 0.031178812 -0.07807412 -0.14405258
0.24557582 -0.1819617 -0.3061094 0.12085005 -0.21213885 0.027748285 -0.022543069 0.22870782
-0.13026255 -0.29478872 0.1379298 0.30426383
00000000: bdcb 363e cd8e 70be e7af 963e f4f0 febd
00000010: a320 1e3e 65a9 9e3e 3eb5 233e 78da e8bd
00000020: 7e9b 9ebe 00c5 bd3c 1dfb 8fbe bb49 fdbc
00000030: 075b 473e 216e bbbd 92e9 3fbe 76f4 85bd
00000040: d397 4abe 5ecd 243e 836d 3b3e a5e6 ea3c
00000050: 0b90 de3d d371 643d f6d5 dd3d c55e 3ebe
00000060: 062f 2cbe eac1 08be 5a89 4cbe 3342 643e
00000070: 0d85 c43d 79b0 c4bd 27f1 b7be eabb 78be
00000080: a936 10be 9a18 d83d 57bb 813e 319a 463e
00000090: c848 06be 327f 6e3d a835 353e 7e88 62be
000000a0: a55b 72be 74ca 233d ef6d 8cbe 23a7 083e
000000b0: 196e bc3d ce1c 843e 1454 09be aa7f f13d
000000c0: 5b9e 893d 1d2e 243d 44e5 4e3e 2672 2e3e
000000d0: 84d4 32bd c40d 50be e1e5 fcbd 49d3 a33d
000000e0: 6207 94be 7861 1abe 83f2 8d3e 9fab 893e
000000f0: 5d20 d73d 5756 533e dbff 45be a149 523e
00000100: fd2e 3ebe be34 dcbc 1ead beb9 bf33 6a3e
00000110: c8a7 773c 8809 5bbe 65c0 6dbe bad0 643e
00000120: df07 b5bd 3969 01be 614d 643e 4933 41be
00000130: 709f 58be 593d 8d3e f661 7a3e acf4 4d3d
00000140: 9cd5 afbd ff1c a63b 8540 983d 24cf a0bd
00000150: 174e 67be 46f1 46be 552e 063e 8192 923d
00000160: ff19 a73e 84f3 65bc 9087 003e d3f2 4c3d
00000170: 9593 333d b999 0c3d 2744 483e b915 013e
00000180: ff22 fcbd ccca a7be cd7d 41bc a0b8 47be
00000190: 159d 8cbe f571 263e 4889 ab3e 63b9 8c3e
000001a0: 5fdc bc3d 8d0e 3f3e b102 7d3e 6eed 5ebe
000001b0: f51c 143e ffdc 753d 3b34 0d3e ee77 27bb
000001c0: c0d0 6a3e 08f7 4f3d 8129 193e d80f 24be
000001d0: b2ba 593e 5064 2ebd 1a2a 79be cd85 843e
000001e0: 9a87 2cbe da70 5e3e aa7a a8be dd13 27be
000001f0: 12ff 483c cae4 bbbd de76 5dbd 8945 193c
00000200: 13c8 76be 20ed f6bd 1c7e 34be f60b 113d
00000210: 8e92 a23e 8e97 a13e 374b 00bd d42a 0dbe
00000220: 7e06 8c3e 0756 4b3e 71e5 843d 88e2 c4bc
00000230: df6a ef3c a52b b8be 529b 123e f943 e9bd
00000240: 789e 7ebe 186a abbd ec8b 833d 5a44 26be
00000250: e32c edbc 0aec e43d e845 003e 1c81 1cbe
00000260: faf9 bb3e fa52 fd3d b5b7 dcbd 106d 453e
00000270: c3a4 a1bd 3e07 d2bd 378f f5bd 398f b43e
00000280: 09c3 413d 3b7d 96be e09f b8be e179 51bb
00000290: a05d 4bbe b56a ff3c 53e5 9fbd 8582 13be
000002a0: 3a78 7b3e 2b54 3abe 5fba 9cbe 3b80 f73d
000002b0: ed3a 59be 5f50 e33c 3eac b8bc 6232 6a3e
000002c0: 8c63 05be 8cee 96be 783d 0d3e 78c8 9b3e

conv1.bias f4 [20]
0.08548387 -0.3263008 0.10981544 0.3325879 -0.254824 -0.04659609 -0.13362443 -0.32764098
-0.16681671 -0.02272908 -0.24855062 0.0772539 0.24341588 0.07827973 -0.1212378 0.19466381
0.13821582 -0.3097533 0.0902257 0.10805707
00000000: 2b12 af3d e610 a7be ebe6 e03d f648 aa3e
00000010: 4b78 82be 8bdb 3ebd d8d4 08be 8fc0 a7be
00000020: 00d2 2abe 5632 babc 0e84 7ebe 4b37 9e3d
00000030: 0342 793e 2051 a03d 864b f8bd f355 473e
00000040: 7388 0d3e fc97 9ebe 40c8 b83d 064d dd3d

conv1n.weight f4 [20]
0.9756611 1.0173147 1.0281606 1.017359 0.99539566 0.9508457 0.9841526 0.99320763
1.0099502 0.9988097 0.98878354 0.9669632 0.9410326 1.0184929 1.0020013 0.9892838
1.0484884 1.0355055 1.0393094 0.9902913
00000000: edc4 793f 5e37 823f c49a 833f d238 823f
00000010: 40d2 7e3f a06a 733f 6df1 7b3f db42 7e3f
00000020: 0c46 813f feb1 7f3f eb20 7d3f e68a 773f
00000030: 83e7 703f fa5d 823f 9441 803f b441 7d3f
00000040: de34 863f 728b 843f 1708 853f bb83 7d3f

conv1n.bias f4 [20]
-0.017998787 0.018931342 0.03685888 0.03331431 -0.006242986 -0.009673477 0.03858147 0.005890657
0.012776677 0.01626713 -0.016086837 0.00033405368 0.009312491 0.030335607 0.022883764 0.010467105
-0.015789088 0.016587941 0.02453227 0.006160338
00000000: 3172 93bc e715 9b3c 56f9 163d 9674 083d
00000010: f691 ccbb 817d 1ebc 9a07 1e3d 6a06 c13b
00000020: 4455 513c a542 853c 8bc8 83bc ed23 af39
00000030: 6b93 183c 6182 f83c bb76 bb3c 387e 2b3c
00000040: 1e58 81bc 6fe3 873c e6f7 c83c a9dc c93b

conv1n.running_mean f4 [20]
-0.12911762 0.01423105 0.24531044 0.33091 0.00493055 -0.37255025 -0.2834861 -0.3398392
-0.21727361 -0.08048568 -0.3348609 -0.3637625 -0.32340714 0.45832402 -0.15451814 0.12767296
0.15537111 -0.3003865 0.77557945 -0.007827137
00000000: 6937 04be 5a29 693c a932 7b3e 096d a93e
00000010: 7490 a13b e8be bebe 1725 91be 67ff adbe
00000020: f97c 5ebe add5 a4bd e372 abbe 143f babe
00000030: 9f95 a5be 72a9 ea3e 013a 1ebe b3bc 023e
00000040: 9b19 1f3e 42cc 99be 608c 463f 643d 00bc

conv1n.running_var f4 [20]
0.04982218 0.07708929 0.06345753 0.027253907 0.09426381 0.07426444 0.04054698 0.013540753
0.02889317 0.020547574 0.03690169 0.15381075 0.16657531 0.078705534 0.056122977 0.0461255
0.07393566 0.03286038 0.25986326 0.02664652
00000000: 5812 4c3d fde0 9d3d 06f6 813d 9643 df3c
00000010: 620d c13d f417 983d 9714 263d 09da 5d3c
00000020: 5fb1 ec3c 6353 a83c 3a26 173d 9180 1d3e
00000030: b892 2a3e 5e30 a13d 35e1 653d 18ee 3c3d
00000040: 946b 973d 9b98 063d cc0c 853e cd49 da3c

conv2.weight f4 [20, 20, 3, 3]
0.04360683 -0.031321395 -0.060372483 0.06369161 0.060496137 -0.055764806 -0.021510804 -0.060049947
-0.0043737437 -0.026525617 0.030950148 -0.0032702975 -0.014626175 -0.026563695 -0.010028563 0.045715146
-0.027219592 -0.010218192 0.055285312 -0.01625452 -0.026350047 -0.019351862 0.08194637 0.0047265245
0.039602306 -0.007113322 0.026052224 -0.056810834 -0.06501327 0.02495099 -0.040593512 0.063032016
0.062326718 0.051121704 -0.014251841 0.042484224 -0.020458963 -0.0057582143 -0.037167247 0.022807803
-0.018940652 0.063664705 0.035925172 -0.05734212 0.047480825 0.07655689 0.0025700873 -0.06489157
-0.023271473 0.046587307 -0.0069063054 -0.036556274 -0.049042534 0.064874135 -0.0017428421 -0.0212047
-0.05313982 -0.07755815 -0.010320223 0.012984645 -0.01904374 -0.026510693 0.0031205707 -0.040703863
0.034065265 -0.0022005748 -0.008391707 0.05068734 -0.03185703 -0.04651913 -0.009831106 0.047778614
-0.022750815 -0.014130404 0.00025056396 -0.044683952 -0.06043818 0.011966687 -0.032007728 0.006443875
-0.05709057 -0.0057746265 -0.03358038 -0.010533902 0.058954004 0.05954513 0.041322056 0.021124145
0.04755392 0.005506051 -0.043545045 -0.07423999 -0.0020438125 -0.046975914 0.002720508 0.06808005
0.09528371 0.06082487 -0.07027702 -0.03851129 0.018249629 -0.03538986 -0.061046764 -0.00954727
0.038119387 -0.039897997 -0.07171372 -0.044763085 0.06694678 -0.00034803402 0.015730405 0.045643657
0.051788006 -0.056018323 0.037536334 0.039599445 -0.051235832 -0.03698349 0.060641825 -0.049903568
0.06625383 -0.033233095 0.057866644 -0.047305476 0.02407383 -0.029285075 -0.08922162 -0.06702655
0.033180054 0.013522622 0.050689343 0.022371314 0.028591836 0.038886 -0.061532624 0.06396916
-0.06546957 -0.09653715 -0.01984464 -0.027782893 -0.09362644 0.006881069 -0.04168495 -0.07999415
0.009865384 -0.02400168 -0.069043875 0.06262399 0.030983534 0.020553796 -0.03225861 0.048711486
0.017452905 -0.01228187 -0.015242481 -0.007589845 -0.034120765 0.043670088 -0.007052244 0.032067053
0.04584919 -0.043508142 -0.014574415 -0.019505069 0.07671591 -0.03986818 -0.025103843 0.024060082
0.06605768 0.019903028 -0.05185306 -0.08312865 -0.041260254 -0.068961 -0.0057468363 -0.05143883
-0.019147992 -0.07820171 -0.0017013395 0.047839046 -0.030224638 -0.021668764 -0.050325297 0.03560593
0.036123887 0.004105858 -0.06484304 0.049816206 -0.091441154 -0.053227514 -0.11598805 -0.046484
-0.08623394 -0.043988407 0.020505577 -0.024662266 -0.054481946 -0.037351504 -0.05715884 -0.05732431
-0.056972783 0.060929812 -0.07508487 -0.05989486 0.014050633 -0.056073446 -0.024278073 0.04101594
-0.055941753 0.04938415 0.033877052 0.05514775 0.038642284 0.016204756 -0.010549092 0.094648525
-0.019939024 -0.0007856608 0.007226901 -0.044121016 0.02497313 0.001412269 -0.04924821 -0.067127846
-0.03385321 -0.039482452 -0.0733574 0.016940646 0.05824273 -0.014901888 0.01708992 -0.041827157
-0.0033190767 0.05335724 0.014060808 0.041591536 -0.039698005 -0.04276334 0.045917224 0.05849632
0.07511542 0.07296906 0.03573381 0.025741601 -0.008526209 -0.08335368 0.005561905 0.07374481
0.09217417 -0.052272383 -0.028619165 -0.06820572 0.081792496 -0.026538048 -0.012223617 0.06240034
00000000: 139d 323d dd4a 00bd 2349 77bd bf70 823d
00000010: ccca 773d a369 64bd 6d37 b0bc eff6 75bd
00000020: 9f51 8fbb 404c d9bc 2a8b fd3c 7d52 56bb
00000030: a0a2 6fbc 1b9c d9bc d84e 24bc ce3f 3b3d
00000040: 9ffb debc 346a 27bc da72 623d 3328 85bc
00000050: 0edc d7bc cc87 9ebc 80d3 a73d f6e0 9a3b
00000060: 0736 223d df16 e9bb 796b d53c 7ab2 68bd
00000070: ad25 85bd 0566 cc3c 6245 26bd ee16 813d
00000080: 4d4a 7f3d fe64 513d 8e80 69bc f003 2e3d
00000090: 8e99 a7bc 67af bcbb af3c 18bd 6ed7 ba3c
000000a0: 6d29 9bbc a462 823d 4626 133d 92df 6abd
000000b0: 417b 423d dcc9 9c3d e96e 283b dfe5 84bd
000000c0: d1a3 bebc 55d2 3e3d 4a4e e2bb 08bc 15bd
000000d0: d3e0 48bd bbdc 843d 1470 e4ba 7bb5 adbc
000000e0: 24a9 59bd cfd6 9ebd 2716 29bc 8cbd 543c
000000f0: 9e01 9cbc f42c d9bc 7d82 4c3b 18b9 26bd
00000100: 0588 0b3d 8537 10bb 5f7d 09bc 879d 4f3d
00000110: 847c 02bd d88a 3ebd a612 21bc 82b3 433d
00000120: eb5f babc 3683 67bc 205e 8339 8506 37bd
00000130: 068e 77bd ec0f 443c 891a 03bd 2427 d33b
00000140: cdd7 69bd 1439 bdbb 958b 09bd 6396 2cbc
00000150: c179 713d 98e5 733d 5141 293d 8b0c ad3c
00000160: e6c7 423d 1a6c b43b 4a5c 32bd 230b 98bd
00000170: 7cf1 05bb d169 40bd 8d4a 323b 8e6d 8b3d
00000180: 1b24 c33d 8023 793d 66ed 8fbd 04be 1dbd
00000190: 3f80 953c f5f4 10bd 2c0c 7abd 276c 1cbc
000001a0: 1323 1c3d 156c 23bd a5de 92bd 7f59 37bd
000001b0: 651b 893d 5678 b6b9 0ddd 803c d8f4 3a3d
000001c0: a91f 543d 7873 65bd b3bf 193d 0733 223d
000001d0: aadc 51bd 007c 17bd 9063 783d af67 4cbd
000001e0: 17b0 873d 6d1f 08bd 9305 6d3d 63c3 41bd
000001f0: 7b36 c53c 41e7 efbc d3b9 b6bd 3745 89bd
00000200: cfe7 073d fd8d 5d3c a19f 4f3d 0c44 b73c
00000210: 6d39 ea3c ed46 1f3d a209 7cbd 4302 833d
00000220: e914 86bd 45b5 c5bd 3a91 a2bc f398 e3bc
00000230: 38bf bfbd 977a e13b d7bd 2abd f9d3 a3bd
00000240: 6ba2 213c 2c9f c4bc e066 8dbd 0241 803d
00000250: 2ed1 fd3c 6f60 a83c 9b21 04bd b285 473d
00000260: 65f9 8e3c e539 49bc 99bb 79bc 3cb4 f8bb
00000270: 37c2 0bbd 68df 323d 8316 e7bb be58 033d
00000280: 5ccc 3b3d 9835 32bd 87c9 6ebc 18c9 9fbc
00000290: 3b1d 9d3d d14c 23bd 93a6 cdbc a619 c53c
000002a0: 4049 873d ad0b a33c e063 54bd 5b3f aabd
000002b0: 8300 29bd 6d3b 8dbd f54f bcbb 86b1 52bd
000002c0: 40dc 9cbc 3828 a0bd 7bff deba e0f2 433d
000002d0: a999 f7bc b182 b1bc e621 4ebd 86d7 113d
000002e0: a4f6 133d 6f8a 863b 6ecc 84bd 140c 4c3d
000002f0: 8045 bbbd 1805 5abd 258b edbd 0266 3ebd
00000300: 6c9b b0bd 302d 34bd 50fb a73c 8508 cabc
00000310: 7628 5fbd e4fd 18bd 631f 6abd e5cc 6abd
00000320: 4b5c 69bd 8a91 793d 19c6 99bd 5054 75bd
00000330: a034 663c 45ad 65bd cfe2 c6bc 5500 283d
00000340: 2e23 65bd 0947 4a3d aac2 0a3d 9be2 613d
00000350: 5f47 1e3d d6bf 843c 19d6 2cbc 16d7 c13d
00000360: 2a57 a3bc cef4 4dba a4cf ec3b 3db8 34bd
00000370: 7394 cc3c e21b b93a 7eb8 49bd 537a 89bd
00000380: aaa9 0abd 5ab8 21bd 683c 96bd 1cc7 8a3c
00000390: ee8f 6e3d 0c27 74bc 2900 8c3c f452 2bbd
000003a0: de84 59bb 1f8d 5a3d 4e5f 663c e35b 2a3d
000003b0: 609a 22bd 9d28 2fbd b313 3c3d d699 6f3d
000003c0: 1dd6 993d cd70 953d 9e5d 123d 0de0 d23c
000003d0: 83b1 0bbc 56b5 aabd a440 b63b 8507 973d
000003e0: d0c5 bc3d 911b 56bd bd72 eabc 71af 8bbd
000003f0: d382 a73d 5266 d9bc 9145 48bc 8097 7f3d

conv2.bias f4 [20]
0.07139138 -0.02010397 -0.061040524 -0.039597135 -0.035708077 -0.04651819 -0.07078803 -0.04699193
-0.01557651 -0.04907395 0.049458373 0.066186756 -0.046524018 0.019480094 -0.045690816 0.065474
0.0313146 -0.048035815 0.0055917017 -0.05202735
00000000: a535 923d 15b1 a4bc a105 7abd 9b30 22bd
00000010: a242 12bd dc89 3ebd 51f9 90bd 9c7a 40bd
00000020: 9e34 7fbc c401 49bd dd94 4a3d ec8c 873d
00000030: f88f 3ebd b894 9f3c 4b26 3bbd 3c17 863d
00000040: bd43 003d 34c1 44bd 983a b73b a11a 55bd

conv2n.weight f4 [20]
1.0304998 0.9678476 1.0105442 1.0082564 0.98568726 1.0154592 1.0108082 1.010138
1.0280362 0.9645383 1.0197898 1.006204 1.0279952 0.97116405 1.0187572 0.9552119
0.9881127 0.96975076 0.9854523 1.0198008
00000000: 6be7 833f dcc4 773f 8359 813f 8c0e 813f
00000010: 0056 7c3f 91fa 813f 2a62 813f 344c 813f
00000020: b196 833f fbeb 763f 7988 823f 4bcb 803f
00000030: 5995 833f 359e 783f a366 823f c488 743f
00000040: f4f4 7c3f 9641 783f 9a46 7c3f d588 823f

conv2n.bias f4 [20]
0.03689334 0.003936068 0.014688642 0.024305156 -0.014909841 0.017985212 -0.030824754 0.025140757
-0.009165083 0.00833363 0.007910006 0.0003330663 0.031053968 -0.022637345 -0.01474888 -0.02026655
-0.0020353107 -0.0105977785 -0.0037180611 -0.0064128395
00000000: 791d 173d 22fa 803b a1a8 703c 9b1b c73c
00000010: 6848 74bc b955 933c 3284 fcbc fdf3 cd3c
00000020: 2529 16bc c789 083c f898 013c 679f ae39
00000030: e464 fe3c f471 b9bc 49a5 71bc 0906 a6bc
00000040: d962 05bb 4ea2 2dbc b7aa 73bb cc22 d2bb

conv2n.running_mean f4 [20]
-0.120107025 -0.7105392 -0.5758749 -0.3292438 -0.35235202 -0.23488474 -0.28422108 -0.10651627
-0.008708906 -0.7747767 0.052130878 -0.109395385 -0.34558848 0.16224493 -0.09169325 0.50539875
-0.34936637 -0.09975916 0.031337194 0.08442804
00000000: acfa f5bd e6e5 35bf 8a6c 13bf a592 a8be
00000010: 7c67 b4be a085 70be 6d85 91be 3425 dabd
00000020: cdaf 0ebc c457 46bf 3087 553d b00a e0bd
00000030: f9f0 b0be 8923 263e acc9 bbbd d061 013f
00000040: 26e0 b2be 884e ccbd 6e5b 003d 9ce8 ac3d

conv2n.running_var f4 [20]
0.4321031 0.15926538 0.33967507 0.27983525 0.36795157 0.3137056 0.2979439 0.27088022
0.26930496 0.14538091 0.2567521 0.2381227 0.45779982 0.44410455 0.4710062 0.5005845
0.14916693 0.3545732 0.32718652 0.2603487
00000000: 9e3c dd3e 7716 233e e4e9 ad3e 9146 8f3e
00000010: 2664 bc3e 059e a03e 1a8c 983e d0b0 8a3e
00000020: 57e2 893e bcde 143e 0375 833e 70d6 733e
00000030: bd64 ea3e ac61 e33e ba27 f13e 4e26 003f
00000040: 37bf 183e 9e8a b53e fe84 a73e 6d4c 853e

conv3.weight f4 [20, 20, 3, 3]
0.05092687 0.07278688 0.035544064 0.0090948185 0.044265218 -0.06542939 0.019431213 -0.054718863
-0.060724568 0.016807595 0.050700966 -0.012488838 0.036598045 0.05068261 0.0015404876 -0.041814633
0.041327253 -0.04115331 0.04394969 0.04241213 -0.002105332 0.06324048 -0.06999998 0.005936447
-0.02315624 -0.0095196115 0.060671818 -0.0006086149 -0.06612909 -0.06275448 -0.058656503 -0.0659252
-0.038440485 -0.008000179 0.038856905 0.021225821 0.08095657 0.012026864 0.05737146 -0.013278743
0.07516772 0.045039855 -0.03443561 0.061735563 0.03880543 0.030876055 0.02386831 0.0052906577
-0.06036469 0.01795818 -0.046600513 -0.0023470465 -0.029506674 0.009281362 -0.01900437 -0.081901535
-0.06353313 -0.019528544 0.0039137704 0.028178297 -0.011729419 -0.056167036 -0.039032795 0.03326194
0.02996472 0.057445012 0.010483352 -0.04507461 0.008687779 0.08397993 0.054880437 0.018035177
-0.02421736 -0.057975303 0.021223703 0.027959427 -0.039299607 -0.022796152 -0.013145747 -0.070602156
-0.032065473 -0.01925964 -0.050915837 0.023638368 0.03007927 -0.0049731936 0.039232485 -0.03329964
0.06259792 0.0043720515 -0.015233011 0.019567747 0.0018150682 -0.023058135 -0.061561607 0.060380783
0.058976088 -0.0062509365 0.02330309 0.06048288 -0.06825178 -0.055943854 -0.053542677 -0.022568729
0.007979491 -0.02619212 -0.028137939 -0.05923917 0.03988235 0.011791235 0.015703006 -0.023974983
0.0065785446 0.05590769 0.007700752 0.10127947 0.057407744 0.01296854 0.045867536 -0.08839474
0.065596126 0.036863357 0.07125765 0.071058795 0.06875073 -0.0061608944 -0.042522017 0.070611425
0.023029123 -0.030625947 0.015351137 -0.046484776 -0.036789026 -0.0028708512 0.04601636 0.06100626
-0.07571911 0.059459545 0.0076932725 0.028050657 -0.05820866 -0.008797774 -0.022470545 0.02408631
-0.04648406 -0.022101972 0.0006126814 -0.07407186 -0.03945484 0.026667608 0.04696929 0.019576352
0.070352174 0.03926424 0.008326378 -0.020203434 0.025028424 0.04088951 0.04641946 0.05196069
-0.06074431 0.04947514 -0.042772636 -0.010706265 -0.048266534 0.01080732 -0.011741832 -0.039673652
0.050525293 -0.050174482 0.019426605 0.050826326 -0.036329076 -0.046186965 -0.020236127 -0.012554115
-0.0016559813 -0.037190825 0.045734037 0.021928528 0.081046134 -5.5177105e-05 0.030828776 -0.056698624
0.030786958 0.038758732 -0.037503574 0.019355536 0.036736608 0.051810153 0.049453173 0.035574082
0.011420636 -0.052994568 -0.058176555 0.01616847 -0.045740496 -0.0761833 0.04753832 -0.031163083
0.036151886 0.004568215 0.019268455 0.06882399 0.039523955 0.002375903 0.041967105 0.003161995
-0.0027949652 0.0064171287 0.01689527 0.092401154 -0.013480367 0.0075397934 0.02899084 0.08506821
0.03294909 -0.03368391 -0.04707544 -0.00556597 0.0667381 -0.04627559 0.020845607 -0.07265316
-0.058923364 -0.01261357 0.06623732 -0.010194383 -0.05876258 0.0035002313 -0.026651984 0.048117016
-0.05303679 0.015196592 -0.039633065 -0.09056347 -0.07556429 -0.012671289 -0.052113637 -0.024703547
0.010541451 0.027290741 -0.06186818 0.04358917 0.023752367 0.03305425 -0.03762169 -0.029210467
-0.015263258 0.06779214 -0.050800566 -0.006048409 -0.1045841 -0.119875826 -0.05256573 -0.0740048
00000000: b298 503d 4a11 953d a796 113d 6f02 153c
00000010: 724f 353d d8ff 85bd 352e 9f3c e320 60bd
00000020: 53ba 78bd 15b0 893c d1ab 4f3d fc9d 4cbc
00000030: d5e7 153d 9298 4f3d 30ea c93a d245 2bbd
00000040: c446 293d 6090 28bd 9704 343d 57b8 2d3d
00000050: 9cf9 09bb 3a84 813d 265c 8fbd 8786 c23b
00000060: 28b2 bdbc 25f8 1bbc 0383 783d 748b 1fba
00000070: b06e 87bd 6c85 80bd cd41 70bd cb03 87bd
00000080: c573 1dbd 2f13 03bc 6b28 1f3d c6e1 ad3c
00000090: 8fcc a53d 530c 453c 56fe 6a3d 168f 59bc
000000a0: 89f1 993d b67b 383d 5b0c 0dbd 6ede 7c3d
000000b0: 71f2 1e3d c8ef fc3c 7987 c33c 415d ad3b
000000c0: f740 77bd 081d 933c 2ee0 3ebd e8d0 19bb
000000d0: fbb7 f1bc db10 183c 0daf 9bbc febb a7bd
000000e0: a81d 82bd 53fa 9fbc 163f 803b 2cd6 e63c
000000f0: c02c 40bc 680f 66bd dae0 1fbd ac3d 083d
00000100: 9378 f53c 764b 6b3d 5dc2 2b3c 27a0 38bd
00000110: 3057 0e3c abfd ab3d 4fca 603d 82be 933c
00000120: 7c63 c6bc 8377 6dbd 55dd ad3c 2b0b e53c
00000130: a0f8 20bd ffbe babc 4261 57bc dd97 90bd
00000140: 1657 03bd 64c6 9dbc 208d 50bd 40a5 c13c
00000150: cd68 f63c 2cf6 a2bb 3eb2 203d 3465 08bd
00000160: 5733 803d 6d43 8f3b e193 79bc 8a4c a03c
00000170: 95e7 ed3a 6ae4 bcbc 0628 7cbd d751 773d
00000180: e990 713d a8d4 ccbb 1fe6 be3c e5bc 773d
00000190: 97c7 8bbd 6225 65bd 914f 5bbd 0ee2 b8bc
000001a0: 69bc 023c db90 d6bc 8981 e6bc c6a4 72bd
000001b0: ad5b 233d 0630 413c 97a3 803c 2f67 c4bc
000001c0: d590 d73b 76ff 643d 9756 fc3b 9c6b cf3d
000001d0: 6224 6b3d 007a 543c 99df 3b3d 4d08 b5bd
000001e0: 4357 863d 08fe 163d 88ef 913d 4687 913d
000001f0: 2fcd 8c3d 54e1 c9bb 912b 2ebd b99c 903d
00000200: 92a7 bc3c 44e3 fabc 5683 7b3c d266 3ebd
00000210: 17b0 16bd e424 3cbb a77b 3c3d b3e1 793d
00000220: 9f12 9bbd da8b 733d d917 fc3b 7eca e53c
00000230: 346c 6ebd 8a24 10bc 2614 b8bc a750 c53c
00000240: 1266 3ebd 320f b5bc 5a9c 203a fdb2 97bd
00000250: 669b 21bd 0776 da3c df62 403d 965e a03c
00000260: cd14 903d 8ad3 203d 5c6b 083c ac81 a5bc
00000270: 6908 cd3c c27b 273d 5522 3e3d bcd4 543d
00000280: 07cf 78bd 72a6 4a3d 5c32 2fbd 5569 2fbc
00000290: 21b3 45bd 2f11 313c d060 40bc d780 22bd
000002a0: 9cf3 4e3d c283 4dbd 8b24 9f3c 442f 503d
000002b0: cccd 14bd 8b2e 3dbd 3cc6 a5bc c6af 4dbc
000002c0: 830d d9ba 6855 18bd 9d53 3b3d 75a3 b33c
000002d0: 84fb a53d f76d 67b8 a18c fc3c d13c 68bd
000002e0: ee34 fc3c 7ac1 1e3d 599d 19bd 808f 9e3c
000002f0: 2079 163d e236 543d 698f 4a3d 21b6 113d
00000300: 9f1d 3b3c d510 59bd 8a4a 6ebd bd73 843c
00000310: 635a 3bbd fd05 9cbd 8bb7 423d b949 ffbc
00000320: 0014 143d f7b0 953b e1d8 9d3c 98f3 8c3d
00000330: dfe3 213d 0ab5 1b3b b3e5 2b3d 7939 4f3b
00000340: bc2b 37bb c746 d23b f367 8a3c d13c bd3d
00000350: c2dc 5cbc 5f10 f73b 337e ed3c 3e38 ae3d
00000360: a0f5 063d 24f8 09bd 2dd2 40bd be62 b6bb
00000370: fcad 883d 798b 3dbd 68c4 aa3c 2ecb 94bd
00000380: a059 71bd 26a9 4ebc 6fa7 873d 5706 27bc
00000390: 08b1 70bd 2364 653b 4355 dabc 5916 453d
000003a0: 1b3d 59bd 20fb 783c 4856 22bd 5779 b9bd
000003b0: 73c1 9abd 3d9b 4fbc 1c75 55bd 185f cabc
000003c0: 0db6 2c3c d590 df3c 7d69 7dbd 8f8a 323d
000003d0: 5394 c23c e563 073d 3419 1abd ca4a efbc
000003e0: be12 7abc 9bd6 8a3d 4114 50bd bb31 c6bb
000003f0: 3030 d6bd 7581 f5bd 2a4f 57bd d48f 97bd

conv3.bias f4 [20]
0.011123775 0.015421638 0.01770061 -0.052148942 0.013466775 -0.049126454 0.008993977 0.03161231
-0.06621714 -0.02826964 0.033295915 0.046473134 -0.062435772 -0.022861606 -0.013613667 -0.028506815
0.0637888 -0.022287443 -0.041667435 0.026328592
00000000: 7e40 363c 0aab 7c3c df00 913c 219a 55bd
00000010: c0a3 5c3c d238 49bd 795b 133c e97b 013d
00000020: da9c 87bd bb95 e7bc 4c61 083d 9d5a 3e3d
00000030: a7bc 7fbd 4348 bbbc dc0b 5fbc 2087 e9bc
00000040: b4a3 823d 2894 b6bc 79ab 2abd 0faf d73c

conv3n.weight f4 [20]
0.98229694 1.003359 1.0234704 0.96098703 0.9982339 1.003666 1.0046344 1.0170704
1.0002495 1.0074112 1.0016673 1.0114028 0.993688 1.0209763 1.0066065 0.9465277
1.0193188 0.99372196 0.9787434 1.0233089
00000000: d077 7b3f 116e 803f 1401 833f 3f03 763f
00000010: 428c 7f3f 2178 803f dc97 803f 5d2f 823f
00000020: 2d08 803f daf2 803f a236 803f a675 813f
00000030: 5662 7e3f 5aaf 823f 7bd8 803f a44f 723f
00000040: 0a79 823f 9064 7e3f ed8e 7a3f c9fb 823f

conv3n.bias f4 [20]
0.0007311542 0.0054283133 0.0064465837 -0.0056112725 0.012197432 0.005387875 0.008592833 0.0066598896
-0.011817648 -0.01328792 0.017940203 -0.0069407346 0.001118117 -0.025731001 -0.0011856934 -0.022433305
-0.016778195 -0.0076482943 -0.005192181 0.00023778496
00000000: eeaa 3f3a fedf b13b dd3d d33b c4de b7bb
00000010: bdd7 473c c58c b03b f4c8 0c3c 343b da3b
00000020: cf9e 41bc 93b5 59bc 55f7 923c 1a6f e3bb
00000030: c88d 923a d2c9 d2bc 4569 9bba 0dc6 b7bc
00000040: 6d72 89bc 8b9e fabb 2c23 aabb ea55 7939

conv3n.running_mean f4 [20]
0.14365965 -0.114951864 0.04746392 -0.2647125 -0.3387384 -0.04225514 0.086738445 -0.32231998
-0.20775543 0.12871999 -0.74383336 -0.22515889 -0.19487946 -0.6285252 -0.5660496 -0.37621933
-0.3074336 -0.46198025 0.7553953 0.4306062
00000000: 841b 133e e26b ebbd 8769 423d 6688 87be
00000010: 1f6f adbe ba13 2dbd eda3 b13d 2007 a5be
00000020: d7bd 54be 2ccf 033e dd6b 3ebf 0d90 66be
00000030: 7b8e 47be 07e7 20bf a0e8 10bf d29f c0be
00000040: f067 9dbe ad88 ecbe 9661 413f 6a78 dc3e

conv3n.running_var f4 [20]
0.31145358 0.29883847 0.27950624 0.15589608 0.3167512 0.21942158 0.19943057 0.19576035
0.20980333 0.24468152 0.19046554 0.18568555 0.23337057 0.15209697 0.4598872 0.16665404
0.1776788 0.3145869 0.59686846 0.27407306
00000000: d876 9f3e 5b01 993e 711b 8f3e 39a3 1f3e
00000010: 372d a23e 0db0 603e 8737 4c3e 6775 483e
00000020: afd6 563e cb8d 7a3e 6609 433e 5a24 3e3e
00000030: b2f8 6e3e 4fbf 1b3e 5676 eb3e 5ba7 2a3e
00000040: 6ef1 353e 8911 a13e 5fcc 183f 4e53 8c3e

conv4.weight f4 [40, 20, 3, 3]
0.06335932 0.057568554 5.431934e-06 0.009180949 -0.06800889 0.07737449 0.055959165 0.058689658
0.025143472 -0.029448243 -0.101199545 -0.03393694 0.065021046 0.0028651063 0.02027476 0.06856999
-0.034035 0.07213604 -0.0019348761 -0.069090866 0.0034597937 -0.074058086 0.011633202 -0.04128376
0.0021650312 -0.063114814 0.0758508 -0.06223271 0.005171287 -0.03783132 -0.0073308744 -0.008514759
0.0015027528 0.014872824 0.017107688 0.010396415 -0.06269174 0.045757446 0.074458845 0.029364254
-0.008497118 -0.03377486 0.028886382 -0.02841185 -0.023342567 0.027685052 -0.010583468 0.02738035
-0.020302007 0.045813154 -0.05609018 -0.051200602 -0.05549299 0.044143125 -0.0034873297 0.07333367
-0.048748758 -0.069668084 -0.0814651 0.06259496 -0.059441436 0.0066298116 0.009827875 -0.08112739
-0.061877295 0.064321905 -0.019577174 -0.0073040007 -0.00911967 0.038294055 0.06326625 0.075531304
-0.04430896 -0.040627405 0.045345202 -0.072855584 0.0155291995 -0.029519143 0.0397758 -0.04103916
0.02857615 -0.024241406 -0.02496693 0.051671717 0.07814733 0.0154208485 -0.039379496 0.058342688
-0.07694001 0.061638482 -0.04265482 -0.020051371 -0.012301745 -0.011008633 -0.0071287355 0.005872637
0.012467134 -0.033124533 0.07954368 -0.07099241 0.002536956 -0.06147361 0.06353639 -0.013407121
-0.021826593 0.01649486 -0.06452413 0.032465827 -0.019104378 -0.020607278 0.045290522 -0.02705217
0.029769836 0.07097459 0.012851025 0.054974068 0.08539868 -0.034862585 0.07023046 -0.012529252
-0.01891498 0.067726776 0.014070802 -0.03498163 -0.047677554 0.011896339 0.061958954 -0.0072148596
-0.06421371 -0.008435829 -0.06682428 0.015325363 0.056306187 -0.05297209 -0.026968507 0.04489673
-0.011040882 0.02123853 0.0033581753 -0.042104065 -0.0101798875 -0.020704513 0.05070067 -0.03625365
-0.03269215 -0.0011049942 0.05302244 0.031356387 0.050064318 0.02618457 0.032502845 0.031065479
0.06481995 0.054986928 0.018712612 0.005241982 -0.07814096 -0.018146738 -0.05182747 -0.057404265
-0.051171623 -0.07379111 0.045156773 -0.03522855 -0.021707512 -0.018362932 -0.054618243 0.010303315
0.017551126 -0.06390489 0.018308237 -0.0022754567 -0.096187174 -0.003817124 -0.012202539 -0.020421373
-0.003563358 -0.024230309 0.07061931 0.07881115 0.029698202 -0.07101604 0.047067497 0.06594036
0.019464143 -0.07860994 0.015409932 -0.008761938 -0.009161774 -0.059254356 -0.031637084 0.021795342
0.044236887 0.005167675 -0.019355731 0.04187721 0.07772182 -0.036743104 0.041998267 -0.036447614
-0.040583014 -0.058186676 0.029861864 -0.083946735 0.08277933 0.08863701 0.05602157 0.0129695255
-0.016722476 -0.07272758 -0.06381882 -0.024174944 -0.038380112 0.030049315 0.006152641 0.070549645
0.04106064 0.025481425 -0.0063582975 0.021921596 0.019789262 0.027333133 -0.025414659 -0.04366691
-0.013145457 0.05008922 -0.027446527 0.06168726 -0.009517364 -0.021087928 -0.0004801007 0.013390359
0.022263773 -0.010636143 -0.045612946 -0.053375937 0.004050082 -0.018204855 0.014432012 -0.053408563
0.02162226 0.03654713 -0.063941844 -0.05968488 -0.061970536 0.039335333 0.007880057 -0.070811555
0.010127135 0.02991002 -0.02095235 -0.013164099 -0.0051982617 -0.046756584 0.08152108 0.00596368
00000000: 88c2 813d 01cd 6b3d f543 b636 b16b 163c
00000010: 3f48 8bbd 8476 9e3d 7035 653d 9164 703d
00000020: aff9 cd3c 713d f1bc b541 cfbd 7601 0bbd
00000030: c129 853d 82c4 3b3b 4117 a63c 6c6e 8c3d
00000040: 4968 0bbd 0fbc 933d ab9b fdba 837f 8dbd
00000050: b5bd 623b c4ab 97bd 3099 3e3c 2919 29bd
00000060: 32e3 0d3b 5742 81bd aa57 9b3d bae7 7ebd
00000070: e673 a93b 04f5 1abd d537 f0bb 7d81 0bbc
00000080: 04f8 c43a 25ad 733c 6c25 8c3c ba55 2a3c
00000090: 8764 80bd 296c 3b3d e17d 983d 4e8d f03c
000000a0: 7f37 0bbc 8257 0abd 22a3 ec3c f8bf e8bc
000000b0: e938 bfbc c3cb e23c 4866 2dbc c14c e03c
000000c0: 6550 a6bc 93a6 3b3d d1be 65bd b9b7 51bd
000000d0: 9e4c 63bd 6ccf 343d af8b 64bb f72f 963d
000000e0: c7ac 47bd 24ae 8ebd 2dd7 a6bd c931 803d
000000f0: dd78 73bd e43e d93b 1805 213c 1e26 a6bd
00000100: 0c73 7dbd 34bb 833d 4f60 a0bc 6656 efbb
00000110: ab6a 15bc 3ada 1c3d bc91 813d 28b0 9a3d
00000120: 507d 35bd ec68 26bd e4bb 393d 4f35 95bd
00000130: 2f6e 7e3c 21d2 f1bc f3eb 223d ae18 28bd
00000140: 8818 ea3c ea95 c6bc 7287 ccbc b9a5 533d
00000150: b50b a03d baa7 7c3c 654c 21bd bef8 6e3d
00000160: b992 9dbd a278 7c3d d2b6 2ebd c642 a4bc
00000170: 428d 49bc 8e5d 34bc 2b98 e9bb 406f c03b
00000180: f342 4c3c 97ad 07bd cce7 a23d 7864 91bd
00000190: 0f43 263b c1cb 7bbd 5e1f 823d 8ba9 5bbc
000001a0: afcd b2bc 3b20 873c 3a25 84bd e3fa 043d
000001b0: c980 9cbc 98d0 a8bc 8e82 393d 839c ddbc
000001c0: dfdf f33c 205b 913d 1b8d 523c 7d2c 613d
000001d0: 81e5 ae3d 12cc 0ebd fdd4 8f3d 7e47 4dbc
000001e0: 97f3 9abc 56b4 8a3d 3989 663c e648 0fbd
000001f0: 8a49 43bd dde8 423c acc8 7d3d a16a ecbb
00000200: 7a82 83bd 6e36 0abc 2bdb 88bd 3b17 7b3c
00000210: 51a1 663d 43f9 58bd 0fed dcbc a2e5 373d
00000220: d1e4 34bc 6dfc ad3c d514 5c3b 5075 2cbd
00000230: 8bc9 26bc 839c a9bc 81ab 4f3d b57e 14bd
00000240: 34e8 05bd 74d5 90ba 0f2e 593d 8e6f 003d
00000250: 3e10 4d3d 0681 d63c b421 053d 087d fe3c
00000260: 52c0 843d f939 613d 314b 993c efc4 ab3b
00000270: 5e08 a0bd 78a8 94bc 0b49 54bd bc20 6bbd
00000280: 5699 51bd cb1f 97bd 4ff6 383d d04b 10bd
00000290: f4d3 b1bc dc6d 96bc 61b7 5fbd 3ccf 283c
000002a0: 61c7 8f3c 91e0 82bd 28fb 953c d41f 15bb
000002b0: c8fd c4bd b728 7abb 28ed 47bc b94a a7bc
000002c0: 3a87 69bb a47e c6bc dba0 903d bd67 a13d
000002d0: a549 f33c dc70 91bd d9c9 403d bd0b 873d
000002e0: 4473 9f3c 40fe a0bd f079 7c3c 3b8e 0fbc
000002f0: 441b 16bc b2b4 72bd e395 01bd 258c b23c
00000300: bd31 353d 9a55 a93b e98f 9ebc 7087 2b3d
00000310: 9e2c 9f3d f07f 16bd 6006 2c3d 184a 15bd
00000320: 603a 26bd 2755 6ebd dea0 f43c 44ec abbd
00000330: 3688 a93d 5287 b53d e076 653d 227e 543c
00000340: 93fd 88bc 33f2 94bd 71b3 82bd 880a c6bc
00000350: 7734 1dbd fb29 f63c 189c c93b 557c 903d
00000360: 342f 283d 6cbe d03c 4459 d0bb eb94 b33c
00000370: 171d a23c bce9 df3c 6732 d0bc 13dc 32bd
00000380: 0b60 57bc 5b2a 4d3d 8ad7 e0bc c8ab 7c3d
00000390: b8ee 1bbc 97c0 acbc 06b6 fbb9 3c63 5b3c
000003a0: 8462 b63c 3843 2ebc a4d4 3abd baa0 5abd
000003b0: 8db6 843b 5922 95bc 3f74 6c3c f0c2 5abd
000003c0: 2a21 b13c 72b2 153d f1f3 82bd 2278 74bd
000003d0: d1d4 7dbd 161e 213d 5b1b 013c a605 91bd
000003e0: 48ec 253c dc05 f53c 43a4 abbc 3cae 57bc
000003f0: 2e56 aabb d583 3fbd 86f4 a63d f96a c33b

conv4.bias f4 [40]
-0.00027233572 -0.013321536 0.00041167458 0.06501536 -0.049865413 0.06800396 0.038451355 -0.07418999
-0.043557882 -0.04644493 0.021890482 0.03184595 -0.057935048 -0.012796092 -0.026473086 -0.020708485
-0.06358358 -0.038099922 0.00820113 0.012304716 0.012390699 -0.035236318 0.041985966 0.0039676046
0.0014088323 -0.047622006 0.056527734 -0.0051820967 0.022594893 0.046121728 -0.021439819 -0.053849634
0.015784595 -0.015286661 0.0032584304 -0.04451173 0.064507216 0.0022258565 -0.07003423 -0.056437798
00000000: 48c8 8eb9 9242 5abc 07d6 d739 c626 853d
00000010: ad3f 4cbd a945 8b3d 2b7f 1d3d ecf0 97bd
00000020: c069 32bd 0a3d 3ebd ab53 b33c e670 023d
00000030: 4d4d 6dbd b3a6 51bc 16de d8bc d7a4 a9bc
00000040: 1c38 82bd aa0e 1cbd 085e 063c b899 493c
00000050: 5c02 4b3c f553 10bd 7af9 2b3d ae02 823b
00000060: 91a8 b83a 4b0f 43bd a089 673d 94ce a9bb
00000070: ed18 b93c 23ea 3c3d 8fa2 afbc 6f91 5cbd
00000080: b24e 813c e774 7abc 648b 553b ef51 36bd
00000090: 5c1c 843d addf 113b 1b6e 8fbd 522b 67bd

conv4n.weight f4 [40]
0.9784215 0.9957398 1.0015988 1.0059898 0.9831897 0.99344164 1.0196775 1.000493
0.977864 0.99905014 1.0073801 0.9844157 1.0123174 0.97178435 0.9566139 1.0009818
0.99612755 1.0159762 0.9984453 1.01483 1.0032116 0.96690816 1.0204923 1.0054797
1.0077552 1.0156292 1.0211514 0.9845299 0.99737805 0.99328786 1.0092468 1.0183536
1.0046402 1.0207586 1.0168602 1.0014557 0.99129236 0.9978971 0.9935849 1.0117463
00000000: d579 7a3f cee8 7e3f 6434 803f 46c4 803f
00000010: 52b2 7b3f 3152 7e3f cb84 823f 2810 803f
00000020: 4c55 7a3f c0c1 7f3f d5f1 803f ab02 7c3f
00000030: 9e93 813f dcc6 783f a6e4 743f 2c20 803f
00000040: 3702 7f3f 820b 823f 1c9a 7f3f f3e5 813f
00000050: 3d69 803f 4b87 773f 7e9f 823f 8fb3 803f
00000060: 1ffe 803f 2300 823f 17b5 823f 270a 7c3f
00000070: 2b54 7f3f 1d48 7e3f 002f 813f 6959 823f
00000080: 0d98 803f 38a8 823f 7a28 823f b32f 803f
00000090: 56c5 7d3f 2f76 7f3f 945b 7e3f e780 813f

conv4n.bias f4 [40]
-0.0093748 -0.008454611 0.0014329711 0.005283717 -0.013359319 -0.01020528 0.009663243 0.00035801122
-0.0075644385 -0.0056059286 -0.0006175727 -0.008204231 0.01107236 -0.015219678 -0.02851596 0.0028704326
-0.025591752 0.007967749 0.00034744316 0.008153833 0.00019036783 -0.007766951 0.009858933 0.00018473568
0.019087886 -0.00661985 0.018862236 -0.01013447 -0.001902051 -0.0012307389 -0.002695231 0.0016510932
-0.0058678286 -0.0111264065 0.0069028987 -0.01653376 -0.011786865 -0.011677169 -0.003072541 0.0017028986
00000000: c398 19bc 3585 0abc 88d2 bb3a 0823 ad3b
00000010: 0ce1 5abc 0c34 27bc 9452 1e3c 74b3 bb39
00000020: 1cdf f7bb f0b1 b7bb 9ae4 21ba 0a6b 06bc
00000030: d868 353c f55b 79bc 4d9a e9bc de1d 3c3b
00000040: cba5 d1bc 298b 023c 0829 b639 a897 053c
00000050: 7a9d 4739 e881 febb 5d87 213c 9bb5 4139
00000060: 335e 9c3c 54eb d8bb fa84 9a3c 0c0b 26bc
00000070: 3e4e f9ba bf50 a1ba 79a2 30bb 7f69 d83a
00000080: ea46 c0bb 884b 36bc b631 e23b cf71 87bc
00000090: b21d 41bc 9951 3fbc af5c 49bb cc33 df3a

conv4n.running_mean f4 [40]
-0.084345534 0.24040462 0.14027569 -0.8025428 -0.15078078 0.2013174 -0.20727985 -0.19794925
0.13205042 -0.17045118 -0.28330612 0.20494173 -0.02238265 0.40698314 0.09013042 -0.09487034
0.5533275 -0.893023 0.23779556 -0.20120317 -0.31601712 0.27396172 -0.31622356 -0.19119897
-0.13873549 -0.17842796 0.45748 -0.18232827 -0.05986682 -0.3133618 -0.70365155 -0.50227416
-0.7054174 -0.34038988 -0.12806793 -0.32875708 0.033593588 0.4756006 0.006732088 -0.42503694
00000000: 5abd acbd a12c 763e 6ea4 0f3e 7273 4dbf
00000010: 4766 1abe 2626 4e3e 2b41 54be 35b3 4abe
00000020: 3a38 073e c18a 2ebe 800d 91be 3fdc 513e
00000030: d25b b7bc 1860 d03e 4c96 b83d 614b c2bd
00000040: dfa6 0d3f 289d 64bf ae80 733e 3408 4ebe
00000050: ffcc a1be b644 8c3e 0ee8 a1be aac9 43be
00000060: ad10 0ebe d2b5 36be d23a ea3e 43b4 3abe
00000070: e936 75bd f570 a0be 8222 34bf 0a95 00bf
00000080: 3c96 34bf 9547 aebe 3d24 03be d952 a8be
00000090: 6e99 093d ec81 f33e d998 dc3b 719e d9be

conv4n.running_var f4 [40]
0.28847364 0.33043686 0.39979798 0.5234675 0.35132605 0.34428102 0.42992234 0.2615484
0.34221333 0.31517968 0.28143612 0.28359967 0.2990818 0.47120273 0.23710449 0.30763847
0.3575363 0.33723384 0.2602353 0.25594324 0.3143093 0.35756016 0.3688568 0.2717546
0.28320903 0.2802004 0.27790558 0.26445073 0.34155512 0.20329548 0.3579778 0.30552447
0.48378018 0.4891848 0.41248468 0.33351386 0.2889273 0.3334629 0.40341088 0.3384936
00000000: d1b2 933e 052f a93e 52b2 cc3e f701 063f
00000010: 02e1 b33e 9a45 b03e c81e dc3e ace9 853e
00000020: 9636 af3e 3b5f a13e 6518 903e fa33 913e
00000030: 4021 993e 7c41 f13e 85cb 723e ca82 9d3e
00000040: ff0e b73e eaa9 ac3e 903d 853e fe0a 833e
00000050: 26ed a03e 2012 b73e ccda bc3e 6b23 8b3e
00000060: c600 913e 6d76 8f3e a449 8e3e 1666 873e
00000070: 50e0 ae3e b12c 503e de48 b73e b46d 9c3e
00000080: 09b2 f73e 6e76 fa3e 3131 d33e 54c2 aa3e
00000090: 47ee 933e a6bb aa3e df8b ce3e 084f ad3e

conv5.weight f4 [40, 40, 3, 3]
-0.0005720753 0.022004724 0.0003435317 -0.005663199 0.0025723646 0.030897545 0.019529235 -0.0063279076
-0.044268105 -0.0052944897 -0.0063714995 0.022308324 0.044032834 -0.036627315 -0.031979837 0.020671438
-0.009038707 -0.0054571917 0.012867245 0.012067951 0.03818151 -0.038931604 0.03814715 -0.025257971
0.016849123 -0.017823301 -0.041081198 0.026181862 -0.032711536 0.02987886 0.010832944 -0.05549559
-0.04111371 -0.03424763 0.02024518 -0.026684143 -0.019795347 -0.020859545 -0.029569406 -0.04180358
-0.057034507 -0.005404999 0.020237839 0.037431974 0.036385313 0.0065278267 -0.023724966 0.018619373
-0.034786467 0.0076696374 -0.01594918 -0.056579955 0.012302257 0.041031644 0.010562385 -0.049394082
0.02089708 -0.026474254 0.022460435 -0.022176625 -0.027304463 0.030156199 -0.03278946 0.012507303
-0.003152397 0.02515176 -0.04263607 -0.008680275 0.047334794 0.025232797 -0.004806913 0.052993268
-0.02343017 0.036859542 -0.033457786 -0.013324395 0.046193898 0.018137386 -0.057706602 0.009437969
-0.061011218 0.02312532 -0.0005966385 -0.057716742 -0.061336964 -0.06345717 0.018236745 -0.015129955
-0.03592202 -0.0035348071 -0.015440133 0.02117156 0.0634148 -0.019690178 -0.039781976 0.025798883
-0.047287602 0.019918893 -0.033190712 -0.03825263 0.03609516 0.054687522 0.042452 0.029057162
0.030647855 -0.009111696 -0.048670914 0.026428694 0.019683138 0.041524213 0.022795761 0.0052630054
-0.041493986 0.00580251 0.013667921 0.035948835 -0.04105469 0.03759263 -0.020580221 0.014311182
0.025011217 -0.022363834 -0.012402176 -0.01835223 0.004247442 -0.04774123 -0.0408916 -0.041239347
-0.023650408 0.04268886 -0.0061636018 0.0051129786 0.011124459 -0.03208266 0.03030936 -0.018266464
-0.015205439 0.007213202 -0.040946648 0.01978473 0.028122889 0.047998473 -0.017791264 0.026544465
-0.005984339 -0.04741171 -0.022871822 0.018706527 0.01849601 0.044199243 -0.027947541 0.0015839242
0.08347527 -0.028793445 -0.0293942 0.05938128 -0.01618892 -0.036474135 0.067332186 0.041601673
-0.027513195 0.019076807 0.0030735899 -0.028124237 0.008183406 0.044089854 -0.015331399 0.035654582
-0.034180347 0.029948544 0.046093244 0.023737578 -0.004410518 -0.035837073 -0.016548485 0.031810436
0.008883907 -0.022584895 -0.0021592197 0.08203629 0.01749634 -0.043440185 -0.010793146 -0.025677133
0.021583559 -0.0017688336 0.008475443 0.013950589 0.039315913 0.03533471 0.059738945 0.001037574
-0.0062030163 -0.021058712 0.046888147 -0.05848575 -0.06615718 -0.008754155 0.022171091 -0.042546704
-0.04064301 -0.056047115 0.01159721 -0.023463624 -0.022683902 0.012284755 0.0040230216 0.041446287
0.05597786 -0.007911984 -0.0050010593 0.052269384 -0.03309819 -0.030783903 -0.060971595 -0.059473325
-0.04612192 0.010459333 -0.03212997 0.027517335 -0.020937033 0.03185458 0.029517472 0.06515613
0.041619934 -0.02447436 0.041237757 0.04599018 -0.023192143 0.054204393 0.0029272754 0.014468821
0.03581433 -0.0025436506 -0.042515807 0.005988427 -0.042551514 0.04095165 0.00294867 -0.011137965
-0.025572298 0.040390834 0.035369184 -0.021156216 -0.021584833 -0.019209934 -0.068409055 0.008194323
-0.02643373 -0.04018104 0.045320235 0.012370701 -0.03709615 -0.024622468 0.03408093 0.01803425
00000000: 53f7 15ba 4043 b43c 0b1c b439 5b92 b9bb
00000010: 1e95 283b d91c fd3c c6fb 9f3c 565a cfbb
00000020: 7952 35bd 667d adbb 03c8 d0bb f2bf b63c
00000030: c65b 343d 8606 16bd 4afd 02bd 2657 a93c
00000040: 1617 14bc 3ed2 b2bb 23d1 523c a8b8 453c
00000050: 3764 1c3d bf76 1fbd 3040 1c3d cee9 cebc
00000060: 2c07 8a3c 2c02 92bc c244 28bd 587b d63c
00000070: 88fc 05bd 83c4 f43c a97c 313c 584f 63bd
00000080: d966 28bd 3e47 0cbd 38d9 a53c b498 dabc
00000090: da29 a2bc a3e1 aabc 8a3b f2bc 3b3a 2bbd
000000a0: 049d 69bd 6b1c b1bb d3c9 a53c 4552 193d
000000b0: c408 153d 61e7 d53b dc5a c2bc a887 983c
000000c0: 417c 0ebd 9551 fb3b dba7 82bc 62c0 67bd
000000d0: 688f 493c cc10 283d db0d 2d3c 7351 4abd
000000e0: 5a30 ab3c 89e0 d8bc f2fe b73c c1ab b5bc
000000f0: 9cad dfbc 220a f73c 3e4e 06bd 6eeb 4c3c
00000100: 7298 4ebb 100b ce3c 29a3 2ebd b637 0ebc
00000110: 21e2 413d 03b5 ce3c 4f83 9dbb 780f 593d
00000120: a1f0 bfbc 08fa 163d 080b 09bd 904e 5abc
00000130: d035 3d3d db94 943c c25d 6cbd b6a1 1a3c
00000140: e6e6 79bd 5071 bd3c bb67 1cba 6468 6cbd
00000150: 783c 7bbd d5f5 81bd 3a65 953c a1e3 77bc
00000160: f822 13bd 39a8 67bb 9df8 7cbc fb6f ad3c
00000170: 9edf 813d 4c4d a1bc 6df2 22bd 2e58 d33c
00000180: a5b0 41bd f22c a33c fcf2 07bd caae 1cbd
00000190: 85d8 133d 0600 603d 26e2 2d3d 4909 ee3c
000001a0: 3611 fb3c 3949 15bc 275b 47bd fd80 d83c
000001b0: 883e a13c 4b15 2a3d 2dbe ba3c 4a75 ac3b
000001c0: 99f5 29bd fb22 be3b 6aef 5f3c 163f 133d
000001d0: f628 28bd bbfa 193d da97 a8bc 7379 6a3c
000001e0: 53e4 cc3c 5c34 b7bc 7f32 4bbc 6a57 96bc
000001f0: 202e 8b3b 4f8c 43bd f37d 27bd 97ea 28bd
00000200: 80be c1bc 84da 2e3d 0af8 c9bb c68a a73b
00000210: 5d43 363c 1b69 03bd 564b f83c 8da3 95bc
00000220: 3c20 79bc b95c ec3b acb7 27bd 9613 a23c
00000230: f961 e63c 0c9a 443d fcbe 91bc c773 d93c
00000240: 4618 c4bb c832 42bd b05d bbbc 6e3e 993c
00000250: f284 973c 440a 353d 3ef2 e4bc ad9b cf3a
00000260: 15f5 aa3d 3be0 ebbc 1bcc f0bc c939 733d
00000270: a09e 84bc e765 15bd 75e5 893d 8466 2a3d
00000280: 5a63 e1bc f746 9c3c 486e 493b cd64 e6bc
00000290: b113 063c 9097 343d 8c30 7bbc 8a0a 123d
000002a0: b100 0cbd a656 f53c 45cc 3c3d 4f75 c23c
000002b0: 1b86 90bb e5c9 12bd b090 87bc a94b 023d
000002c0: cf8d 113c f503 b9bc b281 0dbb a402 a83d
000002d0: 7c54 8f3c 56ee 31bd bcd5 30bc da58 d2bc
000002e0: 01d0 b03c 35d8 e7ba 96dc 0a3c 0391 643c
000002f0: b909 213d 21bb 103d d3b0 743d 35ff 873a
00000300: ac42 cbbb 5283 acbc c90d 403d c18e 6fbd
00000310: 6a7d 87bd 966d 0fbc 26a0 b53c 7445 2ebd
00000320: 4979 26bd a991 65bd 3902 3e3c c936 c0bc
00000330: 97d3 b9bc ff45 493c 8dd3 833b 95c3 293d
00000340: 0a49 653d 44a1 01bc eddf a3bb 6c18 563d
00000350: f891 07bd 862e fcbc 5abd 79bd 4d9a 73bd
00000360: 57ea 3cbd 9f5d 2b3c b79a 03bd 096c e13c
00000370: 2484 abbc f379 023d a0ce f13c 9470 853d
00000380: aa79 2a3d 747e c8bc ece8 283d 3360 3c3d
00000390: 73fd bdbc 6d05 5e3d 88d7 3f3b a20e 6d3c
000003a0: 0cb2 123d 60b3 26bb 0e25 2ebd 913a c43b
000003b0: 7f4a 2ebd ebbc 273d 793e 413b 037c 36bc
000003c0: ff7c d1bc dc70 253d 47df 103d cd4f adbc
000003d0: add2 b0bc 275e 9dbc 0c1a 8cbd 7b41 063c
000003e0: 8d8b d8bc e094 24bd b6a1 393d 7bae 4a3c
000003f0: 22f2 17bd 0fb5 c9bc 7298 0b3d 90bc 933c

conv5.bias f4 [40]
-0.051221572 0.052340385 0.040729776 0.02694494 -0.029732648 0.0024491362 0.03387922 -0.04091489
-0.052051958 0.03334964 0.011766737 -0.006357365 -0.004194043 -0.048232563 0.035705257 -0.008060019
-0.013233055 0.010787889 -0.029210297 0.018362192 0.045757953 -0.038144704 0.02270558 -0.0052992334
0.019588144 0.009270524 0.04678905 0.0025292556 -0.016596068 0.019218441 0.033777323 0.032060105
0.026532376 0.02426183 -0.018954096 -0.019557647 0.04396996 -0.0011600964 0.03661595 0.041384175
00000000: b6cd 51bd df62 563d 44d4 263d a3bb dc3c
00000010: e291 f3bc b081 203b f0c4 0a3d 5f96 27bd
00000020: 6f34 55bd a299 083d 46c9 403c 7151 d0bb
00000030: 2f6e 89bb 828f 45bd ad3f 123d 2c0e 04bc
00000040: 75cf 58bc b0bf 303c 6f4a efbc 4f6c 963c
00000050: b16c 3b3d 9f3d 1cbd 0d01 ba3c 31a5 adbb
00000060: 5177 a03c 65e3 173c e0a5 3f3d dec1 253b
00000070: 7af4 87bc fe6f 9d3c 175a 0a3d 7551 033d
00000080: 6d5a d93c bfc0 c63c 9f45 9bbc 5c37 a0bc
00000090: d819 343d 600e 98ba 9bfa 153d 7482 293d

conv5n.weight f4 [40]
1.0155214 1.0014428 1.002117 1.0013225 1.0028527 0.99381477 0.9912044 1.0085347
0.98066515 1.019614 0.99578524 0.99187183 0.97318316 1.0024891 1.0257003 1.0002736
0.9719026 1.0164895 0.99765867 1.0067611 0.98613125 1.0206276 0.9943635 1.0081933
1.0140057 0.9907995 0.97722846 0.99502903 1.0075231 1.0050539 0.98175967 1.0153334
0.990707 1.0085728 0.9834403 1.005429 1.0152906 0.9917939 1.011336 0.99535936
00000000: 9bfc 813f 472f 803f 5f45 803f 562b 803f
00000010: 7a5d 803f a56a 7e3f 92bf 7d3f aa17 813f
00000020: df0c 7b3f b682 823f c8eb 7e3f 50eb 7d3f
00000030: 8822 793f 9051 803f 264a 833f f708 803f
00000040: 9cce 783f 541c 823f 8f66 7f3f 8cdd 803f
00000050: 1973 7c3f eda3 823f 9b8e 7e3f 7a0c 813f
00000060: f0ca 813f 09a5 7d3f a52b 7a3f 39ba 7e3f
00000070: 84f6 803f 9ba5 803f 9a54 7b3f 72f6 813f
00000080: f99e 7d3f ea18 813f bec2 7b3f e6b1 803f
00000090: 0bf5 813f 34e6 7d3f 7573 813f dfcf 7e3f

conv5n.bias f4 [40]
0.010269885 -0.0009769012 -0.009151684 -0.0027988038 -0.0027958846 -0.013064498 -0.010860452 0.008485708
-0.013795509 0.008942427 -0.027183246 -0.015768219 -0.009363457 -0.008608799 -0.023230147 -0.00016463744
-0.0029061914 0.008211879 0.0073157144 0.0076397746 -0.007360044 0.010200034 0.011898176 -0.011376083
0.00481658 0.0031750256 -0.0097133415 -0.0015729321 0.004093062 0.0012074646 -0.01806914 0.008326166
-0.0043217875 -0.001407523 -0.015607061 0.0068836324 -0.013394747 -0.0032832837 -0.003998555 -0.009202682
00000000: 0543 283c 5d0b 80ba f2f0 15bc 236c 37bb
00000010: 293b 37bb 7a0c 56bc 0af0 31bc a407 0b3c
00000020: 8f06 62bc 4283 123c 66af debc 5a2c 81bc
00000030: 2f69 19bc ec0b 0dbc 264d bebc 87a2 2cb9
00000040: cd75 3ebb 1e8b 063c a9b8 ef3b 1357 fa3b
00000050: 862c f1bb 0b1e 273c 91f0 423c c062 3abc
00000060: 67d4 9d3b 1714 503b b524 1fbc d82a ceba
00000070: 181f 863b ca43 9e3a bc05 94bc 796a 083c
00000080: c89d 8dbb a37c b8ba c2b4 7fbc 1890 e13b
00000090: a475 5bbc 5c2c 57bb 4f06 83bb d9c6 16bc

conv5n.running_mean f4 [40]
-0.125673 0.18609893 -0.40179494 0.031385187 -0.25713617 -0.06554226 0.07826516 -0.383014
0.38198507 0.0082038855 -0.20555098 -0.45849928 -0.08893094 -0.5529527 -0.84957325 0.028339712
-0.055665568 -0.3513091 0.26250747 -0.71448624 0.24880193 -0.8364365 -0.57877064 -0.5212631
-0.2689745 -0.20472613 0.21272284 0.1428918 -0.3433272 -0.23633932 0.35105735 0.056152463
0.37237492 -0.32249272 0.13270502 -0.46038952 0.019023044 0.25179514 -0.10825871 -0.4880741
00000000: 6cb0 00be b890 3e3e 11b8 cdbe c18d 003d
00000010: 5aa7 83be 053b 86bd 7c49 a03d 691a c4be
00000020: 8c93 c33e 9769 063c f57b 52be 6bc0 eabe
00000030: 6d21 b6bd 4f8e 0dbf a27d 59bf af28 e83c
00000040: 9401 64bd c9de b3be 6167 863e 92e8 36bf
00000050: efc5 7e3e b420 56bf 502a 14bf 8071 05bf
00000060: 07b7 89be baa3 51be 04d4 593e 3a52 123e
00000070: 95c8 afbe ef02 72be cabd b33e 2000 663d
00000080: eda7 be3e c41d a5be d3e3 073e 2db8 ebbe
00000090: 37d6 9b3c 4beb 803e beb6 ddbd d9e4 f9be

conv5n.running_var f4 [40]
0.20242432 0.23325354 0.3364279 0.23021962 0.20150608 0.15607442 0.28870392 0.24212639
0.20451099 0.2746899 0.27795768 0.26806858 0.303703 0.21825406 0.34122917 0.21773545
0.17961897 0.26466218 0.24398938 0.33721894 0.23645034 0.38690984 0.2600108 0.25872633
0.23705848 0.26228723 0.20817335 0.26755884 0.2817719 0.2209677 0.2527076 0.18848367
0.26031876 0.26251015 0.20096298 0.17573266 0.25752616 0.23521891 0.22478484 0.27816778
00000000: 5248 4f3e 04da 6e3e 4740 ac3e b1be 6b3e
00000010: 9c57 4e3e f9d1 1f3e 00d1 933e fbef 773e
00000020: 546b 513e 28a4 8c3e 7850 8e3e 4940 893e
00000030: f67e 9b3e fe7d 5f3e 97b5 ae3e 0bf6 5e3e
00000040: 09ee 373e cd81 873e 5ad8 793e f6a7 ac3e
00000050: 0a20 723e 0c19 c63e 2320 853e c777 843e
00000060: 75bf 723e 834a 863e 652b 553e 79fd 883e
00000070: 6844 903e 5b45 623e e462 813e dd01 413e
00000080: 8048 853e bb67 863e 3dc9 4d3e 43f3 333e
00000090: 78da 833e 3add 703e ff2d 663e 026c 8e3e
